hw/hw1/models/model3.ckpt (torch, 2775 bytes, 5 tensors)

layers.0.weight f4 [5, 24]
0	0x80016a7a	-1.30032e-40
1	0x0000df23	8.0046e-41
2	0x0000f0a1	8.6321e-41
3	0xb78e27ba	-1.6946218e-05
4	0xba06cb70	-0.0005142009
5	0xb3f986d7	-1.1619493e-07
6	0x0000bc91	6.7645e-41
7	0x0000cc8c	7.3378e-41
8	0xb788bd19	-1.6300519e-05
9	0xba07874b	-0.00051700015
10	0xb45d10bf	-2.0588321e-07
11	0x0000d0aa	7.4855e-41
12	0x0000dd19	7.9315e-41
13	0xb79021f6	-1.7181952e-05
14	0xba083af3	-0.00051967724
15	0xb4866f1b	-2.5040285e-07
16	0x0000da71	7.8362e-41
17	0x0000ca61	7.26e-41
18	0xb78d8a3e	-1.6872884e-05
19	0xba099fe8	-0.0005249963
20	0xb4a2ff50	-3.0360616e-07
21	0x0000bd1f	6.7844e-41
22	0x0000c496	7.0522e-41
23	0xb78b6021	-1.6614855e-05
24	0xbca4d78f	-0.020122318
25	0x3e2fd2c4	0.17170244
26	0x3e7f5fe3	0.24938922
27	0xbd96fc2f	-0.07372319
28	0x3d532a09	0.05155376
29	0xbe1e78c4	-0.15475756
30	0x3e9c5437	0.30533
31	0x3ede8f86	0.43468875
32	0xbabb0490	-0.0014268328
33	0x3bfa2150	0.0076333657
34	0x3d7f273f	0.062293287
35	0xbf2dc74e	-0.6788224
36	0xbeeb11df	-0.45912072
37	0xbd1757d4	-0.036948994
38	0xbc9eedc4	-0.019400485
39	0x3d35a59e	0.044347398
40	0xbf9a781f	-1.2067908
41	0xbf6cea7e	-0.92545307
42	0xbe204a6e	-0.15653393
43	0xbd1bbee8	-0.03802386
44	0x3fcab038	1.5835028
45	0x3fa5bdc7	1.294854
46	0x3faae0c7	1.3349847
47	0x3e8ae9b9	0.2713144
48	0xbe801c0c	-0.25021398
49	0x3ecdc80b	0.40191683
50	0x3edee09d	0.4353074
51	0x3e2b91aa	0.16754785
52	0x3e457885	0.19284256
53	0x3d901c79	0.07036681
54	0x3eb2bf30	0.3491149
55	0x3ea58a12	0.32331902
56	0x3d85a837	0.06526225
57	0x3ea9d359	0.33169058
58	0x3de21761	0.110396154
59	0xbc9088bc	-0.017643325
60	0x3b539041	0.0032282027
61	0xbdf48b1e	-0.11940597
62	0xbd0f6e5c	-0.035017356
63	0xbd0f81d4	-0.035035923
64	0xbe3e5069	-0.18585362
65	0xbe435e9b	-0.19079058
66	0xbe2227a5	-0.15835436
67	0xbe80443e	-0.25052065
68	0x3ed6bd4d	0.419413
69	0xbe454226	-0.19263515
70	0xbe52fed7	-0.20605026
71	0xbee3f97f	-0.44526288
72	0x3e811832	0.25213772
73	0xbe21031d	-0.15723844
74	0xbd92dd1f	-0.07171082
75	0x3df0225f	0.11725306
76	0xbe20e448	-0.15712082
77	0xbe61d30e	-0.22053167
78	0xbd083f89	-0.033263717
79	0x3dea05e1	0.114269026
80	0x3dd58975	0.104266085
81	0xbe11c4d1	-0.14235236
82	0x3c687231	0.014187382
83	0xbe9d3f96	-0.30712575
84	0xbe1e6229	-0.15467133
85	0x3e128186	0.14307222
86	0x3d0f3dc6	0.03497102
87	0xbe163c34	-0.14671403
88	0xbf0198a4	-0.50623536
89	0xbe97fa6b	-0.2968324
90	0x3c03a260	0.008034319
91	0x3e54b0c2	0.20770553
92	0x3f0d70fc	0.55250525
93	0x3f07b5f9	0.53012043
94	0x3f1a8923	0.60365504
95	0x3ef10606	0.47074908
96	0x00014591	1.16791e-40
97	0x9498bcea	-1.5422591e-26
98	0x95bbe661	-7.589217e-26
99	0xbb80d9fa	-0.003932235
100	0xbc92c3cb	-0.017915627
101	0xbb3426ab	-0.0027488868
102	0x96905c99	-2.3322892e-25
103	0x974a0450	-6.5275163e-25
104	0xbb7f6ce4	-0.0038974816
105	0xbc93fe82	-0.018065695
106	0xbb413450	-0.0029480644
107	0x96b8f91e	-2.9884018e-25
108	0x96ed0860	-3.82947e-25
109	0xbb880442	-0.004150898
110	0xbc945f1a	-0.018111754
111	0xbb3a0178	-0.0028382223
112	0x9759d69d	-7.038736e-25
113	0x977a9394	-8.0965626e-25
114	0xbb9021d0	-0.004398562
115	0xbc93b6c1	-0.01803148
116	0xbb3050e7	-0.002690369
117	0x991738dd	-7.8180005e-24
118	0x98dede36	-5.761003e-24
119	0xbb9d9a11	-0.004809626

layers.0.bias f4 [5]
0	0x0000be1e	6.8201e-41
1	0xbd010719	-0.03150091
2	0x3e387c29	0.18016113
3	0xbe53651e	-0.20644042
4	0x0bf324ab	9.365537e-32

layers.2.weight f4 [5, 5]
0	0x3934ed27	0.00017254484
1	0x3cf5b94d	0.029995585
2	0x3ef71f0a	0.48265868
3	0xbe5e269a	-0.21694413
4	0xbcc6b1f6	-0.02425478
5	0xb992ab1d	-0.0002797478
6	0x3f538fcd	0.826413
7	0x3e0ec3a9	0.13941826
8	0x3e46ed91	0.19426562
9	0x3d9574ad	0.07297645
10	0x30686191	8.453976e-10
11	0xbdb883cb	-0.090095125
12	0x3ec59b0f	0.38594863
13	0xbe3b8875	-0.18313773
14	0xb94fdd9b	-0.00019823613
15	0xb8cd2596	-9.782163e-05
16	0xbed344b4	-0.41263354
17	0x3e9503f8	0.2910459
18	0x3ea8d2f4	0.32973444
19	0xb2790865	-1.4495616e-08
20	0xbbb8e160	-0.005642101
21	0xbeb1112a	-0.34583408
22	0x3e37d11b	0.17950861
23	0x3ed9dbea	0.42550594
24	0xbd038d04	-0.032116905

layers.2.bias f4 [5]
0	0x3e8477e4	0.2587272
1	0x3eed3ca3	0.46335325
2	0x3f156dec	0.5837085
3	0xbec11efd	-0.37718955
4	0x3ec15a44	0.3776418

layers.4.weight f4 [1, 5]
0	0xbdf4d081	-0.119538315
1	0x3f1ed3e9	0.620421
2	0xbdf4a2a5	-0.119450845
3	0x3e3518a3	0.1768518
4	0xbe89bab1	-0.26900247
