hw/hw1/models/model4.ckpt (torch, 33479 bytes, 9 tensors)

layers.0.weight f4 [128, 24]
00000000: f17a 0a3c f293 053e 834d 65bd 3acb 1a3e
00000010: 3a45 aebd 6adc 20be 897f 8a3d 6451 873c
00000020: cee0 343e 136d af3d 9332 5f3e 610c a33c
00000030: 3406 35be 7b08 eabd 64f2 303e aafb 233e
00000040: c2cc 9cbc 40be 84bc 9d23 21be 97b2 383e
00000050: e6e1 8a3e 8be4 303e f617 ef3c 5ec3 6d3e
00000060: 134c 0580 f747 1200 3b7d 1300 891d ebb6
00000070: 6cbe 78b9 d2b0 4eb5 3fe2 1400 f69e 1000
00000080: 00d2 ffb6 f3e7 75b9 977e 90b5 6f0e 1400
00000090: 6023 1200 a6f9 08b7 5ac0 76b9 0144 86b5
000000a0: b435 1200 2608 0f00 3165 14b7 afb8 79b9
000000b0: fb17 7fb5 ffbf 1100 7495 0f00 6182 1cb7
000000c0: 9329 193c d68c 2dbb 20ef ad3c a00f 2e3e
000000d0: d0f7 66bd 00a9 87bd 7ceb 713c 30c7 28bd
000000e0: a815 b63d a76a d63d af5b 0bbd bb6e ecbd
000000f0: efd7 e4bd a3b5 cd3d ec32 053d c897 4abe
00000100: 82ab 21be 6312 34be e5be 28be 4ebf dd3c
00000110: 5994 f63d 3f46 e23d 18bc 5c3d 1f95 b63d
00000120: c5ab 0480 152c 0d80 7229 0d80 279a 51a4
00000130: 7d99 63aa 9fe3 cd96 65bf 0280 615e 1180
00000140: 536c 8fa4 3eea 42aa a2e4 4c95 2011 1200
00000150: ec6f 0c00 9810 bfa4 1eb9 6aaa 3224 b393
00000160: b39d 0780 6ba9 0b00 e63f 07a5 862a c3aa
00000170: a1ed 0392 3573 0880 69cb 0500 61c4 c3a4
00000180: 2d85 fbba 89b4 033e 07e2 5ebc e6b4 323e
00000190: dafc ef3c d498 0e3e 01a2 d03c 9004 913d
000001a0: 802d 203e 32ca dc3d c1a4 e83d b7b8 07be
000001b0: c3bd 54bd 6923 143e 5182 cfbd f723 963d
000001c0: e976 1dbe b93a bdbd 86b4 d93d a8d4 61bc
000001d0: 2829 6a3e b5ed b13d b28a 9b3d d6ee e83d
000001e0: f7f9 5cbb 0927 27bd f270 3fbd b5e5 623d
000001f0: fb8d 05be 0604 9ebd 27b8 1ebd 5028 35bd
00000200: 35cb 6abd 5e57 b23d 3be4 f1bc c543 3fbd
00000210: b2b6 4fbd b057 f23c c4a9 ef3d fa0b 6c3d
00000220: 6d85 4cbd e086 6ebd 3e0d c2bd db25 493d
00000230: 7486 19bd 9e11 723c 5333 de3b 105d 9fbb
00000240: 7c1b 0280 53cb 0680 3965 0680 bf20 0ab7
00000250: 0401 e0b9 c825 08b5 30e3 0680 89f9 0680
00000260: a294 05b7 1078 ddb9 ec5a e0b4 0e9e 0780
00000270: 63de 0780 022c 0ab7 2306 d8b9 035e 01b5
00000280: 4c85 0680 7781 0780 bcde 03b7 27f3 d9b9
00000290: 6aa2 25b5 0cf0 0580 d5db 0580 1233 13b7
000002a0: ba4b 0880 19ef 1300 ae54 0d00 f541 0e80
000002b0: 1b61 2795 fb1a 0980 0885 1400 855f 0a00
000002c0: e42e 1080 9692 a795 2fdc 0980 9b9f 1100
000002d0: ddc5 0800 9035 0e80 b2f0 c495 b3b5 0880
000002e0: 17a8 0c00 86a1 0700 ba33 0f80 8561 bd95
000002f0: 4e32 0980 e2a2 1000 f70d 0900 dfea 1080
00000300: 248f fd3b 9ae7 e8bb 7733 543c 1837 413e
00000310: bff6 3fbe ff33 be3a 8e9b 983a 56ed 60bd
00000320: 71d0 323e e3d4 90bd 2033 5b3d 1df0 3cbd
00000330: 77d2 a0bd 55af f0bd f2e4 2e3e d5f6 053e
00000340: 7bbd 01be 1912 18be 58ec fa3d a16c 9f3d
00000350: 0e5b e83d 84de d53d 415d e33c 0d8b a2bd
00000360: 8267 0100 bfd6 0600 50ad 0700 e7cb 128f
00000370: 0b23 81a9 058a 0880 344c 0700 7e82 0800
00000380: 7ad0 d38f 54a8 61a9 b35f 0880 f812 0800
00000390: b2c9 0700 af9f 1d90 4c0a 8ea9 aeef 0980
000003a0: 8296 0700 9b04 0700 50f9 fb8f c1d2 78a9
000003b0: 1f95 0980 3571 0700 4877 0700 06b7 8890
000003c0: 308c f2bb 849a e2bc 25f0 e33d 8c7c 0ebe
000003d0: 3c77 ffbd 2e76 08bd 8924 023e 20f0 e73d
000003e0: d927 0a3e 68d2 213e 2182 2bbd 9b94 313d
000003f0: bf01 873a 5a8c d43d d6a9 85bc 58a5 f53d
0.008452163 0.13044718 -0.055982124 0.15116587 -0.08509298 -0.15709081 0.06762607 0.016518302
0.17663881 0.08565726 0.21796636 0.019903364 -0.17678148 -0.11427399 0.17279965 0.16013971
-0.019140605 -0.016204 -0.15736242 0.18036877 0.27125472 0.17274682 0.02918623 0.23219058
-4.86468e-40 1.678855e-39 1.789799e-39 -7.006984e-06 -0.0002372206 -7.699829e-07 1.917872e-39 1.526392e-39
-7.6240394e-06 -0.00023451429 -1.0765679e-06 1.841888e-39 1.665729e-39 -8.1643575e-06 -0.00023532045 -1.000357e-06
1.672304e-39 1.380456e-39 -8.845048e-06 -0.0002381529 -9.50298e-07 1.630079e-39 1.431146e-39 -9.328681e-06
0.009348291 -0.002648165 0.021232188 0.16998148 -0.056388676 -0.06624031 0.0147656165 -0.041205585
0.08890849 0.10469561 -0.034022983 -0.11544558 -0.111739986 0.1004441 0.032519266 -0.19784462
-0.15788081 -0.17585139 -0.1647907 0.02706876 0.12040014 0.11048555 0.053890318 0.08915161
-4.28961e-40 -1.209675e-39 -1.208729e-39 -4.5450223e-17 -2.0214902e-13 -3.3263185e-25 -2.5233e-40 -1.59506e-39
-6.219987e-17 -1.731193e-13 -4.137783e-26 1.659182e-39 1.142176e-39 -8.286116e-17 -2.08476e-13 -4.5221644e-27
-6.9942e-40 1.070966e-39 -1.1731033e-16 -3.4668465e-13 -4.162921e-28 -7.76012e-40 5.32147e-40 -8.490045e-17
-0.001918947 0.12861837 -0.013603694 0.1745182 0.029295374 0.13925487 0.025467874 0.07080948
0.15642357 0.10780753 0.11359549 -0.13254057 -0.051938783 0.14466633 -0.10132278 0.073310785
-0.15377392 -0.09239716 0.10630135 -0.013783611 0.22867262 0.08687917 0.075948134 0.11373679
-0.0033718327 -0.04080871 -0.046738572 0.055394847 -0.13042443 -0.07715611 -0.03874984 -0.044227898
-0.0573227 0.0870807 -0.029527774 -0.04669549 -0.05071134 0.029582828 0.11702302 0.05762861
-0.049931932 -0.058234096 -0.09475182 0.049108367 -0.03748174 0.014774708 0.0067810207 -0.004863389
-1.9353e-40 -6.23952e-40 -5.87325e-40 -8.233065e-06 -0.00042725366 -5.0718927e-07 -6.32512e-40 -6.4053e-40
-7.962024e-06 -0.00042241858 -4.1789406e-07 -6.99548e-40 -7.22626e-40 -8.235687e-06 -0.00041203303 -4.819305e-07
-5.98831e-40 -6.89292e-40 -7.860068e-06 -0.00041570628 -6.1703633e-07 -5.4529e-40 -5.38038e-40 -8.7737735e-06
-7.6185e-40 1.830647e-39 1.224239e-39 -1.309358e-39 -3.3801984e-26 -8.36198e-40 1.884433e-39 9.52621e-40
-1.486189e-39 -6.7682035e-26 -9.05506e-40 1.618459e-39 8.05664e-40 -1.304912e-39 -7.954352e-26 -7.99865e-40
1.162325e-39 7.00792e-40 -1.396088e-39 -7.649035e-26 -8.44565e-40 1.527799e-39 8.31529e-40 -1.553624e-39
0.007738011 -0.007107687 0.012951723 0.18868673 -0.1874647 0.0014511346 0.0011643039 -0.05491384
0.17462327 -0.07071855 0.053515553 -0.046127427 -0.07852643 -0.11752192 0.17079523 0.1308244
-0.12669937 -0.14850654 0.1225211 0.07784391 0.11345492 0.10442832 0.027754428 -0.07936678
1.28967e-40 6.2805e-40 7.05021e-40 -7.237626e-30 -5.73483e-14 -7.84196e-40 6.70185e-40 7.81496e-40
-2.0886509e-29 -5.0106037e-14 -7.69014e-40 7.41489e-40 7.15203e-40 -3.1085806e-29 -6.307853e-14 -9.125e-40
6.9684e-40 6.445e-40 -2.4846543e-29 -5.5249862e-14 -8.80014e-40 6.8346e-40 6.85639e-40 -5.3924534e-29
-0.0074019656 -0.02766157 0.11129788 -0.13914698 -0.12473914 -0.03331583 0.1270925 0.11325097
0.13491763 0.1580292 -0.041872147 0.04335461 0.0010300203 0.103783324 -0.016316336 0.119944274

layers.0.bias f4 [128]
00000000: c148 a4bb a306 0a00 3efa db3a bfad 0780
00000010: 4d60 773d 1c97 19bc 7c8d 0180 c890 0b00
00000020: 84c0 50bc 4ea7 0500 4286 ca3c 82ab 54bd
00000030: ad6c a4a7 86ff 84bd 6fdc 953d 069c 523d
00000040: 4b87 b5b6 d7a6 fb3d f8ef 8cb1 45c6 febb
00000050: 6b04 0280 f978 3c3d 0b26 0600 8931 b896
00000060: 5347 97bd b774 1e3b c15f b1bd 6ec7 dabc
00000070: 39d7 793d fd4d bea1 a16d 0880 2e49 ad3d
00000080: 2188 b53c 7995 eebc 5163 07bd 4f88 0780
00000090: e3b8 1a3d 34fb 0f00 9e1d 82bc 9c82 bcbc
000000a0: 5dc2 92bd c486 0d80 bfe7 893a 99e5 83ba
000000b0: 74aa 0300 506a 0300 e476 c8bd 6f51 e3bc
000000c0: dfdd 95bc 2a26 0080 1cf2 473c 3702 7cbc
000000d0: 2312 e8bd 231d 0180 c144 0000 4cc5 aebc
000000e0: 2ca4 d6bc 7ab3 1280 57db 8ebd 209c 0f80
000000f0: 7d47 ac3c c282 01bb 0e85 0700 d75b 0180
00000100: d802 ae3d 7b01 82bd 95c9 cebb 7bc4 95bb
00000110: a0a5 9719 6cc6 0780 83f5 053e bc0e 0800
00000120: fd7f debd fb18 d4bd 9107 eebd 5e46 b93c
00000130: 2612 a63c 904b 133e e000 829b 8dba 75bd
00000140: e308 789e b06d 0680 c10b 9d3d 6ecf 1180
00000150: 5e0c 67bd eb04 5dbd a5d3 10be 8cd8 05b4
00000160: 0149 a4bd d3ae a73c 32fb 163d aaf7 2cbd
00000170: c5a3 cfbc a8ad 0200 c3aa 173b 678e d611
00000180: 3070 0800 3772 88bc 8220 0180 109a 64bb
00000190: 32d2 bb3c 7a18 cc89 ba2b 0500 f168 ce3c
000001a0: c3d6 2bba 3bb4 6f3a 8758 0700 64a1 d8bc
000001b0: a83c 06bd a740 4abd 3a76 563c 0d11 efbd
000001c0: f85a 453d 638e cebd e226 b2bc 8c77 0c08
000001d0: b9ad dc3d 78d9 89a5 829a a93d a59a 6fbc
000001e0: c6ff 64bd fa00 0500 667b 1bbc 717f 98bc
000001f0: adff 1bbc f464 e33c 5b17 07bd 7d5a 0000
-0.0050135558 9.20736e-40 0.0016782952 -7.05177e-40 0.060394574 -0.009374406 -1.4259e-40 1.062128e-39
-0.012741212 5.19195e-40 0.024722222 -0.051921375 -4.563697e-15 -0.0649405 0.07317435 0.051418327
-5.4099705e-06 0.122876815 -4.1018176e-09 -0.0077751004 -1.85256e-40 0.046013806 5.6466e-40 -2.9758064e-25
-0.07386651 0.0024178454 -0.08660842 -0.026706424 0.060996268 -1.2895544e-18 -7.74011e-40 0.084612235
0.022159638 -0.029124008 -0.0330537 -6.91747e-40 0.037773978 1.467647e-39 -0.015883263 -0.023011498
-0.07165978 -1.242206e-39 0.0010521336 -0.0010062932 3.36654e-40 3.13644e-40 -0.097883016 -0.027748792
-0.018294273 -1.369e-41 0.0122037195 -0.015381387 -0.11331584 -1.02288e-40 2.4664e-41 -0.021334313
-0.02620133 -1.717423e-39 -0.069754295 -1.43354e-39 0.021030182 -0.0019761776 6.9058e-40 -1.24781e-40
0.08496636 -0.063479386 -0.0063106515 -0.0045705414 1.567993e-23 -7.14029e-40 0.13081937 7.3997e-40
-0.108642556 -0.10356327 -0.11622537 0.022616562 0.020272326 0.14384294 -2.1507261e-22 -0.05999236
-1.31308484e-20 -5.90361e-40 0.076682575 -1.635615e-39 -0.05640828 -0.05395977 -0.14143236 -1.246537e-07
-0.08021737 0.020469105 0.036860652 -0.04222838 -0.025346646 2.45967e-40 0.0023142553 3.385101e-28
7.74929e-40 -0.016656024 -1.03497e-40 -0.0034881867 0.022927377 -4.913423e-33 4.74864e-40 0.025196524
-0.00065551343 0.0009143983 6.74606e-40 -0.026444145 -0.03277269 -0.049378064 0.013089711 -0.11673174
0.048182458 -0.10085752 -0.021747056 4.2270244e-34 0.107753225 -2.3913074e-16 0.08281423 -0.0146242725
-0.055907987 4.59528e-40 -0.00948987 -0.018615456 -0.009521407 0.0277581 -0.032981258 3.2461e-41

layers.2.weight f4 [32, 128]
00000000: 7366 ddac e4c9 0d80 8b09 0e80 e30c 0880
00000010: b632 f9ac b73a 0980 e0cf 0780 e569 8402
00000020: 0f6b 4a08 96f9 0680 04d2 1c8a cd0f 178a
00000030: 0195 0c80 60c0 0284 a791 b718 7344 0200
00000040: 4efb 0680 ee56 0400 b64c 0600 d7d5 0e00
00000050: 5a3d 8d82 6b45 b494 7889 0580 bc39 0980
00000060: 39f0 1100 4ef8 9180 3ad7 8b05 9e14 bc94
00000070: 41a2 1180 5058 0e00 6260 0080 fc7a 0c00
00000080: 3c5a fbad a4b0 0300 2ad3 9c9e c902 0700
00000090: 2014 1080 e5a3 0480 0de3 0100 ec49 0980
000000a0: 2e7e 0200 9933 0700 20c3 aeaa 0709 0c00
000000b0: 2fa4 0f00 7b00 0600 4fe0 4f10 cc92 088e
000000c0: 1a80 1300 a34f 0780 d651 0980 b127 0400
000000d0: e5ed 0d00 129e 0d80 6fb3 0000 66d8 9d83
000000e0: 6a99 e900 cc44 0f00 c15c 0e00 386d 0700
000000f0: 181d 1900 04f3 3a0c f352 0600 369a 0680
00000100: 5194 0580 90c9 0f00 0945 0f80 5706 ab00
00000110: 4308 1480 6564 0a80 3d85 c108 3aad 0180
00000120: d442 0880 f532 0480 63ea 3994 e94b f38e
00000130: 6ed4 0300 09ed 0000 f01f 0300 211f 8f8a
00000140: c88d 0300 bcb8 0580 ce37 2680 969c 1d02
00000150: 6f54 0887 b4c9 0e00 f426 0200 a922 0300
00000160: bb68 0500 6a4c 0280 4b95 c7b1 2b7c 3805
00000170: 18ac 8611 18cb 0a80 fdc4 0580 1cb2 5c82
00000180: b217 0900 7bbe 1400 0909 1280 b082 e802
00000190: 2432 488e c65e 1100 b342 0483 6913 1800
000001a0: 7be8 0a00 49ab 1100 9817 0280 c0b1 0500
000001b0: 5b16 0e80 8df7 b8a4 5a42 0e80 ef92 c916
000001c0: 5db7 0600 aa44 b507 6eca 1380 7a67 0180
000001d0: bc05 0300 b866 1200 91ff 0600 09d2 0800
000001e0: 7913 0480 62e6 0b80 569a 1180 9a9d 1300
000001f0: b231 1480 4a58 0100 969e 0000 b87a 0700
00000200: 40d6 7fbb 3f11 0b00 b911 e6ba aae8 0300
00000210: c419 87bb e929 45b7 61b8 0700 0433 5302
00000220: be0d 0cbb 8dad 0500 a2f6 1ebb 3935 21bb
00000230: 27fd 0380 10fa deba 7cc1 54bb 23dd d6ba
00000240: 2899 9281 b203 89ba ed74 0100 1e15 0ab5
00000250: 966a 0800 8f9a 45bb aa3e 6302 2e3a 0500
00000260: 0871 23ba 803e dbba 4e2b e8ba 06ae 34bb
00000270: 86d4 cfba ae05 0d80 6d6f 0780 1299 c4ba
00000280: da98 8abb 4b78 6622 8a51 42bb 6b1e 0500
00000290: c8ab d7b9 dda8 0080 13c5 4cba 910f 1eba
000002a0: 0a7e 97ba 01aa 0d00 8710 82bb f6aa 65b8
000002b0: 3f06 0500 6ba4 0680 77e7 30bb 6305 1fbb
000002c0: 8eaa cfba c905 9f03 cb4a 31b8 9ef5 8bba
000002d0: 6c5d 56ba c296 0100 465b 1200 62d1 e5ba
000002e0: 7ba6 e5ba 4044 0100 de8e 01bb 8559 0980
000002f0: 1d4c abba 5c12 27bb de9e 0a80 d6fe 0e00
00000300: 4600 f9ba c7f1 b8b9 dc75 d4b9 05e8 deba
00000310: 9ef2 0d00 d04c cb02 349b 29bb c65b 0300
00000320: c482 0aba 273a 73ba a506 44bb 2ff8 34bb
00000330: 2ac3 0cba b40d 83b1 ed94 0a00 adc3 20bb
00000340: ba32 0380 d886 0880 560b f9ba 972c 0200
00000350: e2eb 16bb 993e 20ba 89bf bdba 4fb0 0f80
00000360: 112d 26ba 98d9 5cb9 f744 95bb 375e 15bb
00000370: a043 20bb c860 0a80 3f86 d5b9 0a27 0a00
00000380: b9fc 0b00 ffcd c8ba 038b 0280 dfc6 ceba
00000390: 3fc1 0ebb d63f 0680 90e6 8300 95ea cda2
000003a0: 3b49 41b5 1527 0e00 6391 0900 cc61 fbb9
000003b0: 8469 6bba 71c0 63bb ea70 74ba f217 39bb
000003c0: a444 13ba 62fb 1ebb d82b 43b8 897d 0100
000003d0: 52de 02bb 81b0 0400 0c89 cfba a41b bfb9
000003e0: b15a a9ba e926 1180 63d2 94ba aa58 4dba
000003f0: 2790 07b8 1443 9db9 0259 82ba e6fc 0300
-6.292572e-12 -1.266286e-39 -1.28912e-39 -7.39307e-40 -7.0826357e-12 -8.47582e-40 -7.1742e-40 1.9456437e-37
6.091301e-34 -6.40548e-40 -7.550626e-33 -7.273357e-33 -1.155478e-39 -1.536976e-36 4.7451463e-24 2.08226e-40
-6.41164e-40 3.98526e-40 5.78532e-40 1.362408e-39 -2.0753302e-37 -1.8202736e-26 -5.08492e-40 -8.4723e-40
1.647379e-39 -1.3405222e-38 1.3150559e-35 -1.8991281e-26 -1.619409e-39 1.317378e-39 -3.4576e-41 1.146144e-39
-2.8575468e-11 3.38873e-40 -1.6604478e-20 6.43848e-40 -1.476587e-39 -4.26136e-40 1.73286e-40 -8.53038e-40
2.28936e-40 6.61358e-40 -3.1044004e-13 1.105264e-39 1.43643e-39 5.51185e-40 4.0996353e-29 -1.6833974e-30
1.790829e-39 -6.71417e-40 -8.55877e-40 3.8158e-40 1.279202e-39 -1.250566e-39 6.4369e-41 -9.277313e-37
2.1452705e-38 1.402212e-39 1.318971e-39 6.82029e-40 2.306324e-39 1.4402049e-31 5.8077e-40 -6.06333e-40
-5.12383e-40 1.44984e-39 -1.402298e-39 1.5706144e-38 -1.839674e-39 -9.5437e-40 1.1647089e-33 -1.53977e-40
-7.58657e-40 -3.85622e-40 -9.386338e-27 -5.9977224e-30 3.51712e-40 8.5032e-41 2.86964e-40 -1.3782108e-32
3.26368e-40 -5.25448e-40 -3.509768e-39 1.1579476e-37 -1.0256316e-34 1.358054e-39 1.97645e-40 2.8794e-40
4.96748e-40 -2.11083e-40 -5.808635e-09 8.6744445e-36 2.1247533e-28 -9.91211e-40 -5.29844e-40 -1.6214162e-37
8.3502e-40 1.905041e-39 -1.65628e-39 3.4164347e-37 -2.4676045e-30 1.595202e-39 -3.886788e-37 2.211015e-39
1.001753e-39 1.622649e-39 -1.92135e-40 5.22942e-40 -1.293717e-39 -8.021665e-17 -1.3095e-39 3.256603e-25
6.16791e-40 2.727421e-34 -1.817493e-39 -1.28956e-40 2.77564e-40 1.689887e-39 6.42693e-40 8.1003e-40
-3.74327e-40 -1.092836e-39 -1.616569e-39 1.801411e-39 -1.854537e-39 1.23508e-40 5.689e-41 6.86872e-40
-0.0039037615 1.016377e-39 -0.0017552889 3.5897e-40 -0.0041229445 -1.1751873e-05 7.08991e-40 1.5516473e-37
-0.0021370496 5.21436e-40 -0.0024255891 -0.0024598374 -3.6632e-40 -0.001701178 -0.0032463958 -0.0016392808
-5.38517e-38 -0.0010453372 1.3378e-40 -5.1439736e-07 7.7292e-40 -0.0030151939 1.669531e-37 4.80048e-40
-0.00062347995 -0.0016727 -0.0017713101 -0.0027569546 -0.0015856184 -1.195899e-39 -6.8282e-40 -0.0014999232
-0.004229647 3.1234495e-18 -0.0029650652 4.7009e-40 -0.00041135983 -6.0577e-41 -0.0007811349 -0.0006029541
-0.0011557948 1.254847e-39 -0.0039692554 -5.4757074e-05 4.61418e-40 -6.09995e-40 -0.0026993433 -0.0024264685
-0.0015843676 9.346508e-37 -4.2269745e-05 -0.0010678058 -0.0008177373 1.45917e-40 1.685782e-39 -0.0017533714
-0.0017520929 1.16319e-40 -0.0019768993 -8.58633e-40 -0.0013068948 -0.002549312 -9.75346e-40 1.377115e-39
-0.0018997274 -0.00035275353 -0.00040523603 -0.0017006403 1.280896e-39 2.9872257e-37 -0.0025879862 3.08429e-40
-0.0005283768 -0.000927838 -0.0029911187 -0.002761375 -0.0005369658 -3.8141597e-09 9.7178e-40 -0.0024530694
-2.93704e-40 -7.83057e-40 -0.0019000571 1.99667e-40 -0.002302878 -0.00061128434 -0.0014476638 -1.44078e-39
-0.0006339113 -0.00021061895 -0.0045553404 -0.0022791752 -0.002445437 -9.53074e-40 -0.00040726547 9.3236e-40
1.10085e-39 -0.0015320181 -2.33539e-40 -0.0015775821 -0.0021782664 -5.73913e-40 1.211316e-38 -5.5813735e-18
-7.2004667e-07 1.299717e-39 8.78674e-40 -0.00047947315 -0.00089802616 -0.0034752155 -0.0009324687 -0.0028243032
-0.0005617833 -0.0024258723 -4.6532456e-05 1.36869e-40 -0.001996894 4.3066e-40 -0.001583369 -0.00036450953
-0.0012920705 -1.575162e-39 -0.0011354204 -0.00078333414 -3.232076e-05 -0.0002999535 -0.0009944739 3.6623e-40

layers.2.bias f4 [32]
00000000: 4982 1480 13cb dab3 898d c2b2 1b4f d3bb
00000010: 46ff 0c00 9440 39bd 8db1 163c 2882 0800
00000020: 75dc 0200 bf14 18bd 712a 35bc 2559 27bc
00000030: d6e0 eb3b 68c9 0abd 9f43 853c dc63 0500
00000040: f043 903d 3d70 0200 3413 c703 9ef7 2fbd
00000050: 7a81 1100 1d67 c2bb f214 a2b8 291b 1400
00000060: 18cd 999c 2c08 23b9 77a4 a2bc f23c 1500
00000070: 4b24 40bd 4fa3 3eb2 f527 263d 8b9a 163d
-1.883447e-39 -1.0188355e-07 -2.2648935e-08 -0.006448639 1.193601e-39 -0.045227602 0.009197605 7.81375e-40
2.62756e-40 -0.03712916 -0.011057482 -0.010214125 0.0071984334 -0.033883482 0.016267596 4.95e-40
0.07044208 2.23935e-40 1.1700578e-36 -0.042960756 1.607651e-39 -0.005932702 -7.728663e-05 1.846453e-39
-1.0177706e-21 -0.00015547936 -0.019853814 1.950408e-39 -0.04690961 -1.1096588e-08 0.04056545 0.036768477

layers.4.weight f4 [8, 32]
00000000: d8dc 0500 da19 0500 f447 b181 e623 12ba
00000010: 16aa 0480 629c d4ba 24a0 17ba 4a9a 0480
00000020: 7aa8 0500 0265 54ba d9a1 cfba ee61 7cba
00000030: c2f0 c8ba 11ea 85ba a22a 47b6 8416 0f00
00000040: 9ca9 d6ba 547f 0480 7786 0200 bbf3 baba
00000050: 1580 0000 adf0 85ba 3a11 0600 d1da 0200
00000060: f8c2 0380 ab69 1380 6fd3 99ba 83d5 0980
00000070: 4f4b 9bba d266 0580 ed69 b6ba d413 a1b9
00000080: 8456 c939 4da8 fc3b 87c4 e53a 6e7d 6b3e
00000090: 3e41 853a f355 3e3e 7eab a73d 6212 5bba
000000a0: b1cf 0bbc b9ee 613e f7cc 043e 8ce6 993d
000000b0: 6350 023e 80a9 d13d 049a 453e d314 fc3b
000000c0: a590 86be 0399 f93a 7119 8935 d517 403e
000000d0: b745 54bb 1afd df3d 952c 9e3a 46a5 15ba
000000e0: fff8 48ba 3652 833a 0d49 8f3d d188 873a
000000f0: ffc9 653e 2e35 fbbb 9b47 563e 0994 34be
00000100: 5486 49b8 6b3c 9cbb 10f1 0d3b 8e2b 3b3c
00000110: 6171 b3b8 3879 463c 4f51 3ebc 1804 0939
00000120: 77df c43b 75c8 05ba d92f 89bb 1702 5c3a
00000130: 1f15 d43a ba79 09bc 319b 82bd 420a b7bb
00000140: 01fb 2f3e 33c4 30ba 05f8 deb0 cba1 363a
00000150: 2cf1 ee3a aa31 2d3c 2610 533a 9129 4338
00000160: 7a14 aa3a 7ebc 513a d65b 903a d170 6fb8
00000170: 5cce 20bc 042f 0a3c dec8 cd3b 1283 5a3e
00000180: ea3e 0580 0d2d 0500 9a0c 4201 aeb0 8fb4
00000190: 3e84 0000 13f3 a5b4 7a80 16b1 2aa0 0e80
000001a0: bfab 0680 1537 c0b1 6d0f a2b1 66a0 00b3
000001b0: af8a 35b4 1a53 8db0 f851 f10d e59d 0500
000001c0: 4b5e 960e 4f26 0b00 82a8 0100 1a2e 92b3
000001d0: 7f58 0380 7c10 97b2 4d09 0400 e442 d102
000001e0: aaf1 0500 b56b 0200 b8b9 f8b3 0005 0800
000001f0: 36e9 8cb3 94ab 0a00 96eb e5b4 1e16 c504
00000200: b4b3 0d00 3e2a 0180 5ee3 0900 89f4 18ad
00000210: 07ed 0b80 afbd 7baf 68f8 b0a7 6f8a 0280
00000220: d0ce 0400 44e5 15a9 2f40 35ab 7de6 3aac
00000230: dfec c0ae cd31 54a8 7b7f 0b80 da30 0d80
00000240: 3b84 1291 bb14 0480 058a 0600 c01c 9aad
00000250: 8c27 0700 d995 f7ab 93d2 0580 949a 1180
00000260: 2310 0080 3ec0 1200 eb87 31ae f682 1380
00000270: 4027 8eac 8b79 0a80 8430 55af 3cb9 0680
00000280: afd2 0800 4a2c 9682 62c1 0e00 e2e3 8aba
00000290: 77cd 0e00 ced2 feba 9556 e2b9 3049 0600
000002a0: 212b 0780 994e 33ba d05e 9eba aea7 80ba
000002b0: 350e d5ba 4222 3fba b952 8628 1c6c 0a80
000002c0: 231d 45ba 0fdc 0280 df4a 0000 b01a beba
000002d0: 8d44 1b03 dee2 84ba 7611 dd9f ea52 1180
000002e0: 2d68 0500 5fd5 1225 6b3d b2ba 25b6 1400
000002f0: 5fda 9eba 0b2e 0900 1732 e2ba 4767 a2b7
00000300: 328a 0100 33b0 e802 af13 0e00 9214 bdbb
00000310: f7a5 0500 654b ccbb 3011 a3bb 4814 0280
00000320: 6fa2 0e80 82e2 acbb b153 b8bb 9bad b7bb
00000330: 7b40 c6bb 62f2 aabb 5f5e 88ba 2058 0e00
00000340: 41f9 78bb 0c40 0280 8630 0700 47a7 c1bb
00000350: c866 0c80 5e04 b8bb a935 3e02 698f 0000
00000360: fd7b 0600 205d 4b92 fed0 c1bb bee1 0a00
00000370: 5c38 bdbb f4c1 0080 468e c9bb 6746 bcba
00000380: 799b d631 88f2 e93b 8aed 15bb a81a 3d3e
00000390: d7f2 fc33 7f02 433e 653c 113d 43a7 70b9
000003a0: b59b 6fbb bb6f c5bd 2fac 543e ea09 543e
000003b0: 2b21 4f3e 39d6 ac3d ee79 2f3e f7a8 8a3b
000003c0: 5208 b9be e099 7137 7d6e 4a99 3f49 133d
000003d0: dad2 48b9 f4cd f5bd 2a02 55ba 370b 00b4
000003e0: ab89 f4b8 7f4e 333a 82f1 b03d a7c5 6135
000003f0: 8cb7 8f3d 73d6 dbbb 2077 af3d cd1a 31be
5.38401e-40 4.68451e-40 -6.512278e-38 -0.00055748073 -4.28357e-40 -0.0016220922 -0.00057840557 -4.2269e-40
5.19615e-40 -0.00081022095 -0.0015841081 -0.000962763 -0.001533054 -0.0010216852 -2.9678126e-06 1.38561e-39
-0.0016377452 -4.13019e-40 2.31908e-40 -0.0014263311 4.5947e-41 -0.0010218822 5.57193e-40 2.62168e-40
-3.45448e-40 -1.782781e-39 -0.0011735986 -9.03113e-40 -0.0011848005 -4.96062e-40 -0.0013917066 -0.00030723086
0.00038402167 0.0077104927 0.0017529883 0.22997066 0.0010166538 0.18587475 0.081870064 -0.0008356926
-0.008533404 0.22063722 0.12968813 0.075146765 0.12725978 0.10237408 0.19297034 0.007692912
-0.2628223 0.0019042793 1.02147e-06 0.18759091 -0.0032390186 0.10936947 0.001206773 -0.00057085266
-0.0007666498 0.0010019008 0.06996355 0.0010340457 0.22440337 -0.0076662516 0.20925753 -0.17634596
-4.8047237e-05 -0.0047679446 0.0021658577 0.011423958 -8.5565036e-05 0.012113862 -0.011616065 0.00013066863
0.0060080844 -0.0005103418 -0.004186612 0.00083926454 0.0016180611 -0.008390838 -0.06377257 -0.0055859396
0.17185594 -0.0006743103 -1.6223117e-09 0.0006966858 0.0018229834 0.010570923 0.00080514175 4.6530335e-05
0.0012976073 0.0008000805 0.0011013697 -5.708711e-05 -0.009814825 0.008434061 0.0062800488 0.21339062
-4.81747e-40 4.75339e-40 3.5641214e-38 -2.6764377e-07 4.744e-41 -3.0910505e-07 -2.1900903e-09 -1.343153e-39
-6.12624e-40 -5.5941975e-09 -4.7165742e-09 -2.9948204e-08 -1.6907391e-07 -1.0282719e-09 1.4872505e-30 5.1582e-40
3.7068656e-30 1.023933e-39 1.52285e-40 -6.8070406e-08 -3.07253e-40 -1.758621e-08 3.70678e-40 3.0748183e-37
5.4587e-40 2.22309e-40 -1.1582182e-07 7.36478e-40 -6.561679e-08 9.79906e-40 -4.2825985e-07 4.633479e-36
1.258327e-39 -1.06989e-40 9.08083e-40 -8.694497e-12 -1.09522e-39 -2.2895706e-10 -4.9119136e-15 -2.33332e-40
4.41532e-40 -3.3283502e-14 -6.439319e-13 -2.6560136e-12 -8.773226e-11 -1.1779163e-14 -1.055922e-39 -1.211386e-39
-1.1558116e-28 -3.74779e-40 6.00525e-40 -1.752054e-11 6.57035e-40 -1.7591997e-12 -5.34717e-40 -1.616656e-39
-5.789e-42 1.722002e-39 -4.036586e-11 -1.791854e-39 -4.0402404e-12 -9.61956e-40 -1.9389473e-10 -6.17463e-40
8.10263e-40 -2.206594e-37 1.35507e-39 -0.0010596479 1.359404e-39 -0.0019441487 -0.00043170588 5.77268e-40
-6.5832e-40 -0.000684002 -0.00120827 -0.0009815597 -0.0016254844 -0.00072911766 1.4912864e-14 -9.57137e-40
-0.00075192953 -2.62613e-40 2.6859e-41 -0.0014503803 4.56291e-37 -0.0010138412 -9.362603e-20 -1.590947e-39
4.96549e-40 1.2735774e-16 -0.0013598626 1.902051e-39 -0.0012119523 8.43037e-40 -0.001725736 -1.9359997e-05
1.4141e-40 3.419047e-37 1.292758e-39 -0.0057702744 5.18714e-40 -0.0062345737 -0.004976414 -1.90947e-40
-1.343967e-39 -0.0052760253 -0.005625211 -0.005605412 -0.006050167 -0.0052168826 -0.0010404101 1.31731e-39
-0.0037990364 -2.06647e-40 6.60255e-40 -0.0059098336 -1.138897e-39 -0.005615755 1.3974395e-37 5.1446e-41
5.95492e-40 -6.417029e-28 -0.0059148064 9.99336e-40 -0.005774541 -6.9577e-41 -0.0061509935 -0.0014364243
6.245895e-09 0.0071395077 -0.002287718 0.184672 1.1778837e-07 0.19043921 0.035457987 -0.00022950493
-0.0036561314 -0.096404515 0.20768808 0.20706907 0.20227496 0.08439297 0.17136356 0.004231568
-0.3613916 1.4400546e-05 -1.0465468e-23 0.035958525 -0.00019152035 -0.12002173 -0.00081256276 -1.1925009e-07
-0.00011660469 0.0006840005 0.08639814 8.4106654e-07 0.07017431 -0.006708914 0.08567643 -0.1729538

layers.4.bias f4 [8]
00000000: 7912 68b4 0af7 0fbe 2484 523d 2221 0900
00000010: d335 0080 bd71 3a28 6c9c 29b4 a0b2 25bd
-2.1613404e-07 -0.14059082 0.05139555 8.38405e-40 -1.9308e-41 1.0349737e-14 -1.5796257e-07 -0.040453553

layers.6.weight f4 [4, 8]
00000000: f93f e53a 1710 913e d3af 0bbe d220 2f2d
00000010: 541e ee39 55b4 1b3a 2855 0a3c 02c2 16be
00000020: 7f58 e83a fc22 a93e 3d58 18be 41b3 9e30
00000030: 201b 613a 2a61 243a 586d 0c3c aa21 7d3e
00000040: 68b6 f980 3d35 1bb7 1408 5d8b 5571 0080
00000050: f005 0602 6b48 0800 30b5 0680 1ead 6e36
00000060: 29d8 0400 e64d b5bb 7eae e4ba 82e9 e582
00000070: f746 0400 2c2d 0680 698d 0600 a3dc 9abb
0.0017490379 0.28332588 -0.1364129 9.954886e-12 0.00045417494 0.00059396523 0.008443154 -0.14722446
0.0017726569 0.33034503 -0.1487741 1.154696e-09 0.0008587111 0.0006270582 0.008570991 0.24719873
-2.2932474e-38 -9.251115e-06 -4.256913e-32 -4.0656e-41 9.846469e-38 7.60663e-40 -6.16011e-40 3.556553e-06
4.44886e-40 -0.005532968 -0.0017447022 -3.3782553e-37 3.928e-40 -5.67218e-40 6.01741e-40 -0.004726009

layers.6.bias f4 [4]
00000000: 8ecc 843e d253 0f3e f88a 0880 14ad dcb7
0.25937313 0.13996819 -7.84537e-40 -2.630664e-05

layers.8.weight f4 [1, 4]
00000000: 6e85 943e e189 bc3e bd3e f036 1562 b73b
0.2900805 0.36823943 7.159861e-06 0.005596409
