hw/hw1/models/model2.ckpt (torch, 2775 bytes, 5 tensors)

layers.0.weight f4 [5, 24]
000000 b0 e1 42 36 53 5b c9 bd 14 c3 15 bc f4 e5 66 3b
       2.903962e-06 -0.09831872 -0.0091407485 0.0035232278
000010 c2 dd 88 bd a3 28 34 be 72 38 06 36 d4 6a c4 bd
       -0.06682922 -0.17593627 2.0000411e-06 -0.09590688
000020 70 76 7f 3d 46 7a 73 3d 90 08 16 be ee 19 33 3c
       0.06236881 0.05944278 -0.14651704 0.010931475
000030 fe 4f 0b b7 ce ac b2 3c 8e 20 dc bb 7d a9 34 be
       -8.30367e-06 0.021810915 -0.006717748 -0.1764278
000040 1e 5e 02 3e bc 08 95 3d 43 5d 38 be cd ec 53 bd
       0.12731215 0.072770566 -0.18004327 -0.051739503
000050 0b 92 06 3d 81 36 31 be a7 34 07 be 24 ca c4 3d
       0.03285412 -0.17305948 -0.13203679 0.09608868
000060 a8 cb d4 bd 03 7d 11 3e 21 5a 3b 3e 56 39 5f bd
       -0.10390407 0.14207844 0.182961 -0.05449804
000070 ea 39 1c 3d cd d3 10 be a2 a4 34 3e 3a 61 8d 3e
       0.03814117 -0.14143296 0.17640927 0.2761324
000080 0b 04 05 bd 25 fc 28 3c df 3d c2 bb c2 86 f7 be
       -0.03247456 0.010314022 -0.0059277858 -0.48345
000090 2d 02 b0 be a8 e0 66 bd 8a 4c 6f bc 43 80 c9 bc
       -0.3437666 -0.056366593 -0.014605651 -0.024597293
0000a0 39 c0 42 bf 49 91 11 bf 0d 06 db bd 92 1f 0a bd
       -0.7607456 -0.5686231 -0.106945135 -0.033721514
0000b0 0a 10 82 3f de 1c 4a 3f a6 08 56 3f 5b 36 17 3e
       1.0161145 0.789503 0.83606946 0.14766829
0000c0 f4 0b d4 bf 42 3f 98 3e 88 7c 98 3e ec 22 55 3e
       -1.6566148 0.29735762 0.2978251 0.20814103
0000d0 47 dc b0 3c 1d 19 84 3e 3b 2f 85 3e b1 3f aa bd
       0.021589411 0.2580041 0.26012596 -0.083129294
0000e0 6e b3 ec bd 64 a8 1b 3e 5e 15 6a 3e 02 f4 d5 3d
       -0.11557661 0.15200955 0.22859713 0.104469314
0000f0 63 62 5b 3e 52 3b 0e be c3 67 bf 3d fb 4a 6b 3e
       0.2142425 -0.13889816 0.09345963 0.22977822
000100 d8 91 30 3e 7f 0f ca 3d 4f c0 b7 bb eb 37 dc 3c
       0.17243135 0.09866237 -0.005607642 0.026882133
000110 3b af 75 3e 64 ed 5a be a4 35 a8 be 58 af 14 be
       0.23992626 -0.2137962 -0.32853425 -0.14520013
000120 fc 17 c8 3e 3f 33 8d bd df 35 8d bb d0 b6 46 3e
       0.390808 -0.0689454 -0.0043094005 0.19405675
000130 1f 88 d2 bd e6 29 71 3e 53 fa 2a 3e 87 99 96 3e
       -0.10279869 0.23551139 0.16697054 0.29414007
000140 ab 4e 35 3e eb 5f d3 bd ab f2 60 3e d2 cc 15 be
       0.1770579 -0.10321029 0.2196757 -0.14628914
000150 ea be e3 3b b5 37 76 3e 6d 6e 13 3d 8c 2c 58 3e
       0.006950249 0.24044688 0.035993982 0.21110743
000160 ea 36 99 be b8 27 2b bc 4c fc 00 3e 19 28 45 3e
       -0.2992471 -0.010446481 0.12596244 0.19253577
000170 06 bb 8c 3e 5d 47 ba 3e 8b a1 0f 3f 3c 16 8a 3e
       0.27486438 0.3638257 0.5610587 0.26970088
000180 2f 93 90 36 9c 92 56 be f2 1f 82 be 4e cb 15 3e
       4.308669e-06 -0.20954365 -0.25414997 0.14628336
000190 82 1c b6 bc f0 48 f7 bc 9b ab 27 bd 63 43 07 be
       -0.02223039 -0.030186146 -0.04093514 -0.132093
0001a0 d6 61 c1 3d 70 3b a0 3d b5 38 4c be 1c 72 e3 3c
       0.09442489 0.07823837 -0.19943507 0.027764373
0001b0 dd 44 a7 3d 55 d4 92 bd 5a 7a 16 bd ba 0d 83 bc
       0.081674315 -0.07169405 -0.036737777 -0.015997756
0001c0 88 eb 61 be 6f f9 3a be 14 d0 03 3e 90 b5 7b be
       -0.22062504 -0.18259214 0.12872344 -0.2458098
0001d0 51 ec 8d bc 2e 9b 7e be 68 9a eb bd a6 be a3 bd
       -0.017324599 -0.24863884 -0.1150406 -0.07995348

layers.0.bias f4 [5]
000000 e0 96 04 35 ee 45 78 3d ed 20 f6 3d 86 1d d2 3d
       4.9393384e-07 0.060613565 0.12017999 0.102595374
000010 eb 90 5f be
       -0.21832626

layers.2.weight f4 [5, 5]
000000 05 7f 8d 3b 1b 8b b9 bd f3 b0 b6 3e 37 3f 28 be
       0.0043181204 -0.090597354 0.35681877 -0.16430365
000010 f6 0b 5b 3e a3 99 92 be df eb 42 3f cc 3e 8d 3e
       0.21391281 -0.2863284 0.7614116 0.27586973
000020 1e b2 aa 3e 67 11 92 be 27 7e 1a be ca 88 b0 ba
       0.33339018 -0.28528902 -0.15087186 -0.0013468501
000030 9e 41 27 3e b5 d1 dd be 0d 5a 4e be 9b 30 2f bd
       0.16333625 -0.43324056 -0.20151539 -0.042770963
000040 ec 3a 9e 3d 01 4e 41 3e 6e f8 2b be 03 12 9c 3e
       0.07726082 0.18877412 -0.16793987 0.30482492
000050 a8 7e d6 b7 5f fa 1b bf 22 b1 17 3e 0d b8 20 3e
       -2.5569767e-05 -0.6092891 0.14813665 0.1569521
000060 c0 8e 71 3a
       0.0009214692

layers.2.bias f4 [5]
000000 e4 38 6b 3e 57 bf 09 3f 83 20 51 3e 87 c5 ad 3e
       0.22970921 0.53807586 0.20422558 0.33939764
000010 26 6a 3c 3e
       0.18399867

layers.4.weight f4 [1, 5]
000000 98 0c 75 be c5 cc 1f 3f ba 7c a7 bd 09 7e 78 be
       -0.23930585 0.6242183 -0.081780866 -0.24266829
000010 fb a9 34 bf
       -0.7057187
