hw/hw1/models/model0.ckpt (torch, 2775 bytes, 5 tensors)

layers.0.weight f4 [5, 24]
00000000: 6e6d 0000 f276 e2b7 418e 72b7 8e66 85bc
00000010: a356 adbd c9f8 b0bd dea1 9fb5 b856 09b8
00000020: 17d6 9b3c a64b b93c 3942 9bbd 3078 5d36
00000030: 0187 d2b6 d867 aebb 3a61 0cbd 4bc8 b5bd
00000040: c62c 0f38 298a b537 efac 04be dd4e 93bd
00000050: c805 ce3a ccb1 abb8 66d8 9ab8 3265 213d
00000060: b180 0080 b1f3 72b4 b386 82b4 21c9 cebc
00000070: 1771 94bd 1658 a3bb debf 37b5 0d6d c5b4
00000080: 203f 0ebc 336f 79bd 55c5 c73b 52ea 14b5
00000090: 5618 93b5 a868 a8bc 781a b0bd 78b1 d3bb
000000a0: 0a82 65b5 15bd 49b5 842e 05bc 1fc0 babd
000000b0: 5524 5dba e6d0 3db5 a980 8eb5 f445 a1bc
000000c0: 6fae d23d 9589 5a3e a982 913e ca78 2dbd
000000d0: 756b 5f3d 4b08 9abe d40f 903e ade1 1b3e
000000e0: ac97 73be 6da0 be3d dd19 a4bd 8754 20bf
000000f0: da5c a9be ab6d 79be ca06 21bb 123a c6bd
00000100: a8f5 5cbf c0a7 2ebf 7866 1abe 062a afbd
00000110: 6c1a da3f 91b7 833f 608e 843f 4ef5 2b3e
00000120: 199d 003d a1e8 ea3b 50d9 c53d 9913 ad3c
00000130: 72aa 12bd 23b3 d73c f0fe 453e de02 b53e
00000140: d711 e23d 4b57 e2bd f36a 523e 9ca4 15bf
00000150: 42b2 b8be 3744 333e ae8c debc 2f9c 533e
00000160: 08e5 4cbf 94e4 efbe a34a 553d ad47 c63d
00000170: c629 bc3f a9e7 5c3f 23d6 863f d432 d83e
00000180: 4258 c398 4afd c3bd 7107 e9bd 4729 b83d
00000190: f1f0 8dbd 1a63 98bd bd7c 0fbd f11b 8ebd
000001a0: f252 283d baae e63c 0878 6abe 52e2 eebb
000001b0: 10ab 503c 0643 edbd 39ae aabd 7d72 7cbd
000001c0: 876e d1bd a3a7 b7bd 4e5a 963d 1d3e 92be
000001d0: aea9 80bd 5bda eabd 5eaf 85bd 488b fdbd
3.9256e-41 -2.6996688e-05 -1.4457445e-05 -0.016284253 -0.0846379 -0.08641202 -1.1893533e-06 -3.274411e-05
0.019022984 0.02261908 -0.0758099 3.3001525e-06 -6.274204e-06 -0.0053224377 -0.03427241 -0.088760935
3.4135555e-05 2.1641217e-05 -0.12956594 -0.07192776 0.0015718276 -8.187033e-05 -7.3835996e-05 0.039403148
-4.6166e-41 -2.2626661e-07 -2.4312394e-07 -0.02524239 -0.07248133 -0.004984866 -6.8452016e-07 -3.6773454e-07
-0.008682042 -0.060897063 0.006096522 -5.547528e-07 -1.0959436e-06 -0.020557716 -0.085987985 -0.006460365
-8.549838e-07 -7.5153486e-07 -0.008128766 -0.091186754 -0.0008435895 -7.0711974e-07 -1.061727e-06 -0.019686677
0.10287177 0.21341546 0.28419998 -0.04235152 0.05454584 -0.30084452 0.28137076 0.15222807
-0.23788327 0.093079425 -0.080127455 -0.6262898 -0.33078653 -0.24358241 -0.0024570697 -0.09679045
-0.8631234 -0.68224716 -0.15078151 -0.08552937 1.7039313 1.0290395 1.0355949 0.16792795
0.03139982 0.007168845 0.0966059 0.021127509 -0.03580708 0.026330536 0.19335532 0.3535375
0.11038559 -0.11051806 0.2054861 -0.584543 -0.360735 0.1750649 -0.02716669 0.20665048
-0.80036974 -0.4685408 0.052073132 0.0968164 1.4700248 0.86290985 1.0534099 0.4222628
-5.0495436e-24 -0.095697954 -0.113783725 0.08992248 -0.069307216 -0.07440777 -0.03503107 -0.06938923
0.041094728 0.028159488 -0.22897351 -0.007290163 0.012736097 -0.11585049 -0.083340116 -0.061632622
-0.102261595 -0.08967521 0.07341443 -0.28563014 -0.06282364 -0.11467429 -0.06527589 -0.123800814

layers.0.bias f4 [5]
00000000: 1a91 b9b8 b124 8eb7 ca7a 0cbe 4390 89bd
00000010: c46c aebd
-8.848515e-05 -1.6944805e-05 -0.13718715 -0.06716969 -0.08516839

layers.2.weight f4 [5, 5]
00000000: cb67 c1bb 0930 0080 9f02 7c3e 979a 98be
00000010: 8e47 133e 7343 7ebd 1cb9 ea3c c1e8 f93e
00000020: 1785 c83e 0777 50be 5cea 3dbb 730a 0000
00000030: 3139 c43d 18f3 94bd a07e d5bd b6ec b8bb
00000040: 3ce5 0780 9295 fcbc 0eba bebd a93c 3e3e
00000050: 522c 08b9 ca8b cfb1 b235 97ba 8387 89bc
00000060: 1980 0000
-0.0059022657 -1.7232e-41 0.24610375 -0.29805443 0.14382765 -0.062076043 0.02865272 0.4881039
0.3916404 -0.20357905 -0.00289788 3.748e-42 0.09581221 -0.07272929 -0.104245424 -0.0056434525
-7.25082e-40 -0.03083304 -0.09312831 0.18577828 -0.00012986481 -6.040385e-09 -0.0011536388 -0.01678825
4.5953e-41

layers.2.bias f4 [5]
00000000: 8ea6 943d 7603 cc3e 01ed b53b abac f23b
00000010: 625a 0500
0.0725833 0.3984639 0.0055519347 0.0074058375 4.91601e-40

layers.4.weight f4 [1, 5]
00000000: 2cfc 81be f5b5 2c3f 9e17 eebc b2aa 23bb
00000010: 5b5f 0080
-0.25387704 0.67465144 -0.029063996 -0.0024973569 -3.4207e-41
