hw/hw1/models/model.pth (torch, 25823 bytes, 3 tensors)

net.0.weight f4 [64, 93]
0	0x3d82942c	0.06375918
1	0xbc809005	-0.015693674
2	0xbd26565a	-0.040609695
3	0x3bcc1488	0.0062280335
4	0x3c1c23c0	0.009530008
5	0x3d7a0a63	0.06104506
6	0x3d517b74	0.051143125
7	0xbd0d9f93	-0.03457601
8	0x3d0379a5	0.03209843
9	0xbc8b546b	-0.017008027
10	0x3d738e85	0.05946209
11	0x3d75025a	0.059816696
12	0xbdbd2491	-0.0923549
13	0xbd1902fa	-0.037356354
14	0x3ce9f87f	0.028560875
15	0xbc042978	-0.008066528
16	0x3d655c79	0.055996392
17	0xbc336068	-0.010948278
18	0x3d1561ab	0.036470097
19	0x3ba4affd	0.0050258623
20	0x3ddd80f9	0.10815615
21	0x3e359629	0.17733063
22	0x3de0bcbd	0.10973499
23	0x3d4782ae	0.04870861
24	0xbdba575f	-0.09098696
25	0x3d301893	0.042992186
26	0xbd1c553e	-0.03816723
27	0x3d210264	0.03930892
28	0xbc93848b	-0.018007537
29	0xbd647350	-0.055774033
30	0x3d28514e	0.041093163
31	0x3ddc8012	0.10766615
32	0xbdc3bf18	-0.095579326
33	0xbdd51ad9	-0.104055114
34	0x3c46623b	0.012108381
35	0xbd22e479	-0.03976867
36	0x3e24453f	0.1604204
37	0xbc237d0c	-0.009978544
38	0xbcc55d62	-0.02409238
39	0x3c9754eb	0.01847311
40	0x3cc84104	0.024445064
41	0x3cc00469	0.023439603
42	0xbda3b85e	-0.079941496
43	0xbe374f81	-0.17901422
44	0xbc892f20	-0.016746104
45	0xbd8f9c9e	-0.07012294
46	0xbdc01f24	-0.093809396
47	0x3d2b13a7	0.04176679
48	0xbdb4384d	-0.08799801
49	0xbbab44be	-0.0052267006
50	0xbd94975b	-0.07255431
51	0xbdb8454f	-0.089975946
52	0xbd3c97fb	-0.046043377
53	0x3dbb54bb	0.091470204
54	0x3da4eed3	0.080533646
55	0xbd484774	-0.048896268
56	0x3da80efd	0.08205984
57	0x3e2e2647	0.17006789
58	0x3d566a8d	0.05234771
59	0xbd7e0be5	-0.062023062
60	0xbdac2fa5	-0.08407525
61	0xbe2f6096	-0.17126688
62	0x3cd2256d	0.025652612
63	0xbdb4058b	-0.0879012
64	0x3d4ea91e	0.05045425
65	0xbc8037d7	-0.015651627
66	0x3dd159e0	0.102222204
67	0xbc99a8a1	-0.018757166
68	0x3df2d06b	0.11856159
69	0xbe16ba92	-0.14719608
70	0x3cc5c8d9	0.024143623
71	0xbe0e5095	-0.13897927
72	0x3e15c14c	0.14624518
73	0x3e020439	0.12696923
74	0x3cead005	0.028663645
75	0x3e38e354	0.18055469
76	0x3dec5afc	0.115407914
77	0xbdf2f82d	-0.11863742
78	0xba514182	-0.0007982479
79	0xbd5a6c6b	-0.05332605
80	0x3c4fb180	0.012676597
81	0xbde5a7b9	-0.11213631
82	0xbdd08f61	-0.10183597
83	0xbd7e12bb	-0.06202958
84	0xbc7ce77b	-0.015436049
85	0x3d553baf	0.05205887
86	0xbc85b804	-0.016323097
87	0x3c7ba6eb	0.015359621
88	0x3d712e9a	0.058882333
89	0xbdf0f32f	-0.117651336
90	0x3c23b2ea	0.009991387
91	0x3dd8ebaa	0.10591824
92	0x3e7b9550	0.24568677
93	0x3c971492	0.018442426
94	0xbe3327e1	-0.17495681
95	0x3d32ff84	0.04370071
96	0x3c41d827	0.01183132
97	0xbcbcae74	-0.023032404
98	0xbbe0b347	-0.006857309
99	0x3de3d4e7	0.11124592
100	0xbdd197d8	-0.1023404
101	0xbd1733c3	-0.0369146
102	0xbd310eb1	-0.0432269
103	0x3d06abb5	0.032878596
104	0xbc169d5c	-0.009192791
105	0x3d20efbe	0.039291136
106	0x3e40316f	0.18768857
107	0x3d10ae15	0.035322268
108	0x3d28a6f0	0.04117483
109	0xbda9cce7	-0.08291035
110	0xbd277d6d	-0.0408911
111	0xbd9e0710	-0.07716191
112	0xbc86e956	-0.016468685
113	0x3e0508db	0.1299166
114	0x3e496eb7	0.1967114
115	0x3c8e588f	0.017376212
116	0x3e286309	0.16444029
117	0x3dd0cc6a	0.10195239
118	0x3d48e1c8	0.049043447
119	0xbd8c0e17	-0.06838625
120	0x3e0ce59c	0.13759464
121	0x3d9643b9	0.07337136
122	0x3b55a6f0	0.0032600723
123	0xbcb1f8c7	-0.021725072
124	0x3d37353c	0.044728503
125	0xbe8f278b	-0.27959856
126	0xbd4ce12f	-0.05001944
127	0x3e04c58f	0.12965988
128	0x3d99c76d	0.075087406
129	0x3db043e3	0.08606698
130	0xbe00e077	-0.12585627
131	0xbc3d5ecb	-0.011558245
132	0x3d1b6994	0.037942484
133	0xbce8514c	-0.028359078
134	0x3d12c05d	0.035827983
135	0x3d874423	0.06604793
136	0xbd3a933f	-0.04555058
137	0xbd2f0465	-0.0427288
138	0x3e072821	0.13198902
139	0x3d27b7c7	0.040946748
140	0x3d9d1dea	0.07671721
141	0x3cb04247	0.021515979
142	0xbd54efd3	-0.051986527
143	0x3cc9b390	0.024621755
144	0x3dc9052e	0.09815441
145	0x3d0ab0da	0.033860065
146	0xbd6b3ea3	-0.057432782
147	0xbd9f39b1	-0.07774676
148	0x3c6e4e31	0.0145450095
149	0xbdac8dd0	-0.08425486
150	0xbc9bae35	-0.019003967
151	0x3e01e6ed	0.12685747
152	0xbdb08020	-0.08618188
153	0xbdaeabef	-0.085288875
154	0x3baec075	0.0053330013
155	0x3d82985b	0.06376716
156	0x3d046688	0.032324344
157	0x3d03f86c	0.032219335
158	0xbd68a581	-0.05679846
159	0xbbe8c113	-0.0071030944
160	0xbe186b0a	-0.14884582
161	0x3d6bf221	0.05760396
162	0xbd6ad767	-0.05733433
163	0xbd838543	-0.06421902
164	0xbb9813d5	-0.004641036
165	0xbcdcf5df	-0.02697271
166	0xbe0568d4	-0.1302827
167	0xbd5065b8	-0.050878257
168	0x3f076555	0.52888995
169	0xbcc5868f	-0.024112014
170	0x3db035fe	0.08604048
171	0x3d08af19	0.03337011
172	0xbc8f9054	-0.017524876
173	0x3cbf100e	0.023323085
174	0xbe2a27eb	-0.1661679
175	0xbcd36b68	-0.025808051
176	0xbe457b77	-0.1928538
177	0x3d84c842	0.06483509
178	0xbc375121	-0.011188776
179	0x3de836dc	0.113385886
180	0x3d7adf5b	0.061248165
181	0x3d117550	0.03551227
182	0x3ddc4b2f	0.10756528
183	0x3d0a9f78	0.033843488
184	0x3c9117e6	0.017711591
185	0xbe48aae9	-0.19596447
186	0x3be95654	0.007120887
187	0xbe2bbf76	-0.16772255
188	0xbd579196	-0.052629076
189	0x3c804da1	0.015662016
190	0xbe228e97	-0.15874706
191	0x3e25df42	0.16198447
192	0x3d60a001	0.05484009
193	0x3c0180de	0.0079042595
194	0x3d9e9024	0.077423364
195	0x3d297db6	0.041379653
196	0x3d7b243b	0.06131385
197	0xbd2ff20f	-0.042955454
198	0x3cf4d5b7	0.029887063
199	0x3c7b57d8	0.015340768
200	0x3d08c03d	0.033386458
201	0x3e4349d3	0.1907113
202	0x3cf72287	0.030167831
203	0xbe48261c	-0.19545788
204	0xbc5dd273	-0.013538945
205	0x3d85c805	0.06532291
206	0x3da36c7a	0.07979675
207	0x3e4e648e	0.20155546
208	0x3e06392b	0.13107745
209	0x3d8e6c30	0.06954229
210	0xbcf39269	-0.0297329
211	0x3c979cea	0.01850744
212	0xbe90822c	-0.28224313
213	0x3dbd87ae	0.092543945
214	0x3dbddb39	0.09270329
215	0x3d39b51e	0.045338742
216	0x3ca79049	0.020454543
217	0x3e2c6cdf	0.16838406
218	0xbdac3edd	-0.08410428
219	0x3ce4f6c5	0.0279497
220	0xbc461f40	-0.0120924115
221	0xbdb1625d	-0.086613394
222	0x3caac7b9	0.020847188
223	0xbdfc3816	-0.12315385
224	0xbd8cf672	-0.06882943
225	0x3dc6e179	0.09710974
226	0x3c398dd9	0.011325323
227	0x3d132758	0.035926193
228	0x3d10c848	0.035347253
229	0xbdf57165	-0.11984519
230	0xbdbe3ed1	-0.09289325
231	0x3d8be6dd	0.06831143
232	0xbc0c663a	-0.008569295
233	0x3d65d605	0.056112308
234	0xbdec0849	-0.11525018
235	0x3b964fb1	0.0045871367
236	0xbe14c79d	-0.14529271
237	0xbd281e5c	-0.041044578
238	0x3deaa07a	0.1145639
239	0x3c4630ec	0.012096625
240	0xbd03a98f	-0.032144126
241	0xbd83a319	-0.06427593
242	0xbde37619	-0.1110651
243	0xbd612b34	-0.054972842
244	0x3d2a1ba2	0.04153026
245	0xbce07ede	-0.027404245
246	0xbd48a2f1	-0.048983518
247	0xbd6ff6b2	-0.058584876
248	0x3cd29472	0.02570555
249	0xba8b59c9	-0.0010631616
250	0x3e09df90	0.13464189
251	0x3dfc4bdb	0.12319156
252	0xbe4a3e4f	-0.19750331
253	0xbd8e5bf4	-0.069511324
254	0xbe172e63	-0.14763789
255	0x3decc2ba	0.11560579

net.0.bias f4 [64]
0	0x3ea58f9a	0.32336122
1	0x3f558f0a	0.83421385
2	0x3f5cf1a7	0.8630623
3	0xbe42c2d4	-0.19019634
4	0xbe282301	-0.16419603
5	0x3ca17fbb	0.019714227
6	0xbc28ee75	-0.010310759
7	0xbdc8cba3	-0.098044656
8	0x3dbf341c	0.09336111
9	0x3ee35fbe	0.44408983
10	0xbe35b6e6	-0.17745551
11	0x3f748a56	0.95523584
12	0x3d816dfd	0.06319807
13	0x3fbea60b	1.4894422
14	0xbe00f4fe	-0.12593457
15	0x3eef3a12	0.46723992
16	0x3e31b454	0.17353946
17	0x3ef1e901	0.4724808
18	0xbe7c8760	-0.24661016
19	0x3cbd3acb	0.023099324
20	0x3ebca604	0.3684541
21	0x3ea61d9f	0.32444474
22	0xbe5427bc	-0.20718282
23	0xbe56f0a8	-0.2099024
24	0x3c4e59b1	0.012594626
25	0x3ead3ff8	0.33837867
26	0x3e865368	0.2623551
27	0x3f19f0eb	0.60133237
28	0xbd87709f	-0.06613278
29	0xbd9f9b4b	-0.07793292
30	0x3e945968	0.28974462
31	0x3f537e03	0.82614154
32	0x3e9945bd	0.2993602
33	0x3f240b4f	0.64079756
34	0x3e8acb9a	0.2710846
35	0xbe74245a	-0.23841992
36	0xbd9d973e	-0.07694863
37	0x3e393bbb	0.18089192
38	0x3ecda4cb	0.4016479
39	0x3f0509d2	0.5196811
40	0xbe8178da	-0.25287515
41	0x3d8724ae	0.06598793
42	0xbdd07bb9	-0.10179848
43	0xbe35029a	-0.17676774
44	0x3e88e8d3	0.2674013
45	0x3e8d2f07	0.27574942
46	0xba410adf	-0.00073639856
47	0x3ec359ee	0.38154548
48	0x3e4e25b4	0.2013157
49	0x3f0cbec9	0.54978615
50	0x3e4216d9	0.18954028
51	0x3f350984	0.70717645
52	0x3e491388	0.19636357
53	0x3ead3043	0.33825883
54	0x3ed91d4f	0.42405173
55	0x3f42194e	0.7581986
56	0x3d1c4eb3	0.03816099
57	0xbd6691d4	-0.056291416
58	0x3f105877	0.56384987
59	0x3f3b9b10	0.7328348
60	0x3e0842a8	0.13306677
61	0x3e969d86	0.29417056
62	0xbe849daa	-0.25901538
63	0x3da492da	0.08035822

net.2.weight f4 [1, 64]
0	0x3e603553	0.21895342
1	0x3f40d971	0.7533179
2	0x3f576cc4	0.8415034
3	0x3ebecb7c	0.3726462
4	0x3e816522	0.2527247
5	0x3e7aeb62	0.24503854
6	0x3efa9386	0.48940676
7	0x3edb6bbb	0.4285563
8	0x3f756802	0.9586183
9	0x3f0f9cb8	0.5609851
10	0x3f593c40	0.8485756
11	0x3f48b2b7	0.783977
12	0x3f489968	0.7835908
13	0x3f9bf009	1.2182628
14	0xbf219509	-0.63118035
15	0x3ea74113	0.32666835
16	0x3f132fb5	0.5749467
17	0x3f4a7860	0.7908993
18	0x3f047f3f	0.5175666
19	0x3e8f1f29	0.2795346
20	0x3f4ea205	0.8071597
21	0x3f594d99	0.8488403
22	0x3ed289f0	0.41120863
23	0x3eeb184a	0.4591697
24	0x3ee2cdd9	0.44297674
25	0x3f28a560	0.6587734
26	0x3eadab54	0.33919775
27	0x3f109a87	0.5648579
28	0x3eae67af	0.3406348
29	0x3eb16b5c	0.3465222
30	0x3efd23dd	0.49441424
31	0x3f347466	0.7049011
32	0x3ea7fae1	0.32808593
33	0x3f34a1ad	0.705592
34	0x3eaa6a72	0.33284336
35	0x3f0a47fa	0.5401608
36	0x3e993487	0.29922888
37	0x3f2c0403	0.6719362
38	0x3e321221	0.17389728
39	0x3f1c4a43	0.61050814
40	0x3ef8d565	0.48600307
41	0x3e915142	0.28382307
42	0x3e3c14e8	0.1836735
43	0x3e867f90	0.26269197
44	0x3ee24072	0.44189793
45	0x3ee750d2	0.45178849
46	0x3e4f9b60	0.20274115
47	0x3ed0c05c	0.4077176
48	0x3ef33d3a	0.4750765
49	0x3ea4f01c	0.3221444
50	0x3f035501	0.5130158
51	0x3f486df4	0.78292775
52	0x3f154278	0.5830455
53	0x3f2f203b	0.68408555
54	0x3e631903	0.2217751
55	0x3f312e82	0.6921159
56	0x3efa4c6e	0.48886436
57	0x3ec7700f	0.3895268
58	0x3ef6fcae	0.48239654
59	0x3f3321d9	0.6997352
60	0x3e5cd0f1	0.2156408
61	0x3edaeeec	0.42760408
62	0x3f2110c0	0.62916183
63	0xbea63332	-0.32460934
