hw/hw1/models/model1.ckpt (torch, 2775 bytes, 5 tensors)

layers.0.weight f4 [5, 24]
00000000: e40f b03d 5ab9 c2bd f2c7 d0bc bc41 873d
00000010: 596b 353c 53aa 79bd 45e4 ad3c 407f 1dbe
00000020: 0541 df3d 68cd 033e 662d bcbd 9c0d 823e
00000030: c866 2c3e b50f ce3d ce54 e13d 5df5 2dbe
00000040: c5e6 f33e 1c20 bd3e bee8 b0bd 9bee fd3d
00000050: b308 cbbe 6f7e d0be d063 c0be fb0c c13d
00000060: 92db 383d e271 0fbc de68 cd3b 84f8 b93c
00000070: de83 2a3d e703 0fbe d539 263d a604 883d
00000080: 0655 013d 2707 603d 3048 edbd ffc4 2bbe
00000090: 37b0 fcbd cb25 d1bb 6544 b43b 9175 dfbd
000000a0: b99b 9bbe b5f1 77be a7e2 0abd bbfa 61bd
000000b0: 154e a13e 44d2 733e d47e 7f3e db87 7c3d
000000c0: c434 8ebe 7d2f af3e abe8 af3e 54e9 983e
000000d0: 4e6b 213e 950f 513e fa08 b33e 0fab d43d
000000e0: 68d6 b2bc a904 943e 194f 1c3e a014 59bc
000000f0: ee29 dc3d 9555 a8bd d70e 3a3e 18d6 303e
00000100: 82fe d5bd 313f dbbd 1017 b03b 97ee 823d
00000110: e214 0e3f c51c 583e ff8d f83d eb68 5fbb
00000120: a7d8 043e 6e05 72bd acb8 66bc f56c 423e
00000130: dc8b c7bc c7d9 3c3e b8eb 193e 6fe1 7d3e
00000140: 88ba 2c3e 38a6 57bc 13d7 0c3e c581 0fbe
00000150: b84f 61bc 5976 593e 3807 9f3d cc5d 463e
00000160: 9c03 72be b247 473c 7542 e03d 4a24 323e
00000170: a26d fa3e 265d 8f3e fb97 e53e 2b35 813e
00000180: 4ae0 273d 64ca 30be ae6e 6abe c571 383e
00000190: bf2d acbb 9bb8 013e e2af 68bd 1d22 27be
000001a0: ca50 f33d c816 ab3d a15a 80bd 8be1 703e
000001b0: 5cc4 7d3e 24d1 10bc dd79 b23c a217 ef3d
000001c0: 13d6 053e c016 e63d 9c2d 633e 80c4 00be
000001d0: 0af5 8ebe 59d1 cebe cfca 91be f4ad 92bd
0.08596781 -0.09508009 -0.025485966 0.06604335 0.011072957 -0.06095345 0.021227011 -0.15380573
0.10901073 0.12871325 -0.091883466 0.25401008 0.16836083 0.1006159 0.11002503 -0.1698813
0.47637 0.3693856 -0.08638142 0.12399026 -0.39655074 -0.4072146 -0.3757615 0.09426304
0.045131274 -0.008755179 0.0062686047 0.02270151 0.041629665 -0.13966332 0.040582497 0.066415116
0.031575225 0.05469432 -0.11586034 -0.16774367 -0.12338298 -0.006382679 0.0055013173 -0.10911096
-0.30392244 -0.24213298 -0.03390756 -0.055170756 0.31504884 0.23810679 0.24950725 0.061653
-0.27774632 0.34215918 0.343572 0.29865515 0.1576359 0.204161 0.34967786 0.10384189
-0.021830752 0.28909805 0.15264548 -0.013249546 0.10750185 -0.082194485 0.18169723 0.1726917
-0.10448934 -0.10705412 0.005373843 0.06393164 0.55500615 0.21104725 0.121364586 -0.0034089636
0.12973271 -0.05908721 -0.014082115 0.18986876 -0.024358682 0.1844245 0.15031326 0.24793027
0.16868031 -0.013162188 0.1375392 -0.14014347 -0.013751917 0.21236552 0.07765049 0.19371718
-0.2363419 0.01216309 0.10950176 0.17396656 0.48911768 0.28000754 0.44842514 0.25235876
0.040985383 -0.17264706 -0.22893783 0.1801215 -0.005254477 0.12668078 -0.05680836 -0.16321607
0.11880644 0.083539546 -0.06267286 0.23523538 0.24781936 -0.0088389255 0.021786625 0.116744295
0.13069944 0.11234808 0.22185367 -0.12574959 -0.27921325 -0.40394095 -0.28475043 -0.07162085

layers.0.bias f4 [5]
00000000: 286f d53d 3821 1cbc 3a02 123e 0bf1 e53d
00000010: 5669 19be
0.10421592 -0.009529404 0.14258662 0.11227616 -0.14981589

layers.2.weight f4 [5, 5]
00000000: dc37 523e ed89 28bf 794d 993e 86b9 98be
00000010: e0c7 a63e b4e9 0fbf fc71 333f 81c8 ae3e
00000020: 0936 b43e 2b38 d2be 34e9 ddbd c1e0 80be
00000030: cbcc 793e 8e86 74be 9b11 c3bd e322 7b3e
00000040: 2d36 2abf 3652 44bc 9b07 78bc ca7b d53e
00000050: 819e f631 629c aa12 9dd4 0fb7 08a1 80b7
00000060: 8dff 89a8
0.20529121 -0.6583546 0.2994192 -0.29829043 0.32574368 -0.5621598 0.700958 0.34137347
0.35197476 -0.41058478 -0.108354956 -0.25171474 0.24394529 -0.23879454 -0.09524842 0.24525027
-0.66488916 -0.011982491 -0.015138532 0.41696006 7.177562e-09 1.076706e-27 -8.572967e-06 -1.5333775e-05
-1.5320883e-14

layers.2.bias f4 [5]
00000000: 8a5c 6d3e a068 f53e 13ec 6e3e 24ae 223e
00000010: 1e2a 2300
0.23179832 0.47931385 0.23332243 0.15886742 3.229351e-39

layers.4.weight f4 [1, 5]
00000000: add7 cebe c5f3 2d3f 022b b4be 1607 ecbe
00000010: 8480 44b8
-0.40398923 0.6795009 -0.35189062 -0.46099156 -4.684973e-05
