hw/hw2/model.ckpt (torch, 348375 bytes, 6 tensors)

fc.0.block.0.weight f4 [256, 39]
-0.055486623 0.22750244 -0.2630258 -0.11538941 0.0094200745 0.006303454 -0.066139676 0.14610331
-0.033775155 0.034954004 -0.104724064 -0.07348742 -0.17314973 -0.14750177 -0.10552572 0.0127071105
0.08233569 0.22968371 -0.18661782 -0.03942271 0.15212749 0.114837915 -0.06016539 0.13851878
0.039239146 0.020571517 0.2732908 -0.079284765 -0.03845757 -0.016853733 -0.047662746 0.15364808
-0.14113304 -0.09307626 -0.1253843 -0.14244159 -0.071968555 0.15555544 0.05266356 0.16358571
0.21261944 -0.061874636 0.03471436 -0.20484526 -0.0643816 -0.05274212 0.11147378 0.09003559
-0.091163814 0.0005745504 0.2045954 0.19974959 0.08135755 -0.012325913 -0.016039416 -0.16552985
0.07376755 -0.12290276 -0.094183974 -0.1050834 0.05836795 0.13917993 -0.0016853235 0.09270997
0.074912 -0.04668539 0.022035375 0.05853224 0.19396795 0.24713387 -0.113254935 -0.14418577
0.09924153 0.16413037 0.18625867 0.12234128 -0.013363601 -0.22010759 -0.010236008 -0.056235284
-0.1743796 0.1896823 0.13909672 -0.23871385 0.07619789 -0.10710797 -0.019994166 -0.18126106
0.060729336 -0.1533275 -0.015121602 0.053554468 0.17381398 0.09819222 -0.2697311 -0.1910143
0.0797145 -0.02224479 -0.22622924 -0.11848687 0.15620965 0.09487001 -0.10332114 -0.09339186
-0.19333905 -0.06703161 -0.16148217 -0.17591386 0.014131079 0.082459666 -0.00942565 0.12950723
-0.037456546 0.17279723 0.090373285 -0.15688866 -0.05907333 0.007935767 0.10025975 0.1672268
-0.035985973 -0.08678446 -0.05269148 0.15103683 -0.13835019 -0.13017498 -0.04439525 -0.08629616
0.0540165 -0.09667823 0.071895726 0.01147086 -0.20027119 -0.051500097 0.13097335 0.16615564
0.0933107 -0.10774642 0.031667132 0.13174586 0.17885391 0.03231052 0.09103695 -0.030980552
-0.13913403 -0.11310511 0.20656124 0.03263132 -0.04921994 -0.2151161 -0.22767957 -0.15412645
-0.023886656 0.045436706 0.050425805 -0.17828183 0.24905032 -0.30808005 0.08569306 -0.12179519
-0.08322726 -0.22453785 -0.08156417 -0.17473957 -0.15671933 0.02507371 0.0041687074 -0.07542135
-0.08351253 -0.16011086 0.076780304 0.032741465 0.19294038 0.0020157434 -0.14324303 0.11972531
0.09991157 -0.012867748 0.11122705 -0.062971994 0.005133352 -0.008407564 0.1751312 0.12158875
0.16852215 0.040388517 -0.11502321 -0.072772786 -0.10000631 0.07265819 0.12664568 0.012223097
-0.13244045 0.021501457 -0.13287294 -0.21225156 -0.2367833 0.15649414 -0.09666618 -0.10063701
-0.032372195 0.088444754 -0.13591076 -0.14208038 -0.15966341 0.11881218 -0.021367544 0.09375031
0.059383236 0.12038659 0.16020972 0.02343262 -0.079234466 -0.028453901 0.064900555 0.020012323
-0.10206315 -0.07006595 0.12728697 -0.13168028 -0.042291224 0.21665011 0.121657595 0.10512967
-0.2279529 -0.0405226 -0.21584001 -0.01265022 -0.05956027 -0.05194574 -0.012077431 0.09953075
-0.018052189 0.09765954 0.1467225 -0.079894945 0.016532255 -0.18924345 -0.09575749 0.08642062
0.1487531 0.0468712 0.027053123 0.0070618545 0.1433131 -0.10637068 0.1691559 -0.19812983
-0.075102635 -0.08275951 -0.06554517 0.07145925 0.14535415 -0.05785274 -0.1610216 -0.053861365
00000000: f145 63bd 66f6 683e 51ab 86be 4851 ecbd
00000010: a856 1a3c 348d ce3b 3d74 87bd 1b9c 153e
00000020: d157 0abd ee2b 0f3d 9279 d6bd 9380 96bd
00000030: 2a4e 31be b40a 17be de1d d8bd 7c31 503c
00000040: 9d9f a83d 3532 6b3e be18 3fbe b579 21bd
00000050: 4fc7 1b3e 2430 eb3d fc6f 76bd ded7 0d3e
00000060: 3ab9 203d 9985 a83c c6ec 8b3e 0d60 a2bd
00000070: af85 1dbd d710 8abc 033a 43bd ec55 1d3e
00000080: 2e85 10be c49e bebd be64 00be 35dc 11be
00000090: 4064 93bd ed49 1f3e bfb5 573d 0383 273e
000000a0: e9b8 593e 4270 7dbd a530 0e3d f5c2 51be
000000b0: 80da 83bd 1f08 58bd 5d4c e43d 9464 b83d
000000c0: 18b4 babd 6d9d 163a 7581 513e 288b 4c3e
000000d0: ca9e a63d a0f2 49bc 1865 83bc a880 29be
000000e0: 7113 973d 71b4 fbbd 87e3 c0bd f735 d7bd
000000f0: 3b13 6f3d 2f85 0e3e 13e6 dcba bade bd3d
00000100: 766b 993d 2e39 3fbd 8883 b43c 81bf 6f3d
00000110: 899f 463e a910 7d3e 34f2 e7bd 6fa5 13be
00000120: 253f cb3d cb11 283e 98ba 3e3e 118e fa3d
00000130: 01f3 5abc e263 61be eeb4 27bc f856 66bd
00000140: 9190 32be 143c 423e 5f6f 0e3e 6771 74be
00000150: a40d 9c3d 6c5b dbbd ceca a3bc 809c 39be
00000160: 53bf 783d e201 1dbe 99c0 77bc ee5b 5b3d
00000170: 4bfc 313e 0119 c93d 321a 8abe 4199 43be
00000180: 5b41 a33d b53a b6bc a3a8 67be 3ea9 f2bd
00000190: 6cf5 1f3e 354b c23d 099a d3bd 3b44 bfbd
000001a0: acfa 45be de47 89bd 955b 25be c322 34be
000001b0: 0b86 673c 9de0 a83d 0b6e 1abc 8b9d 043e
000001c0: 096c 19bd c2f1 303e a115 b93d 6ca7 20be
000001d0: e0f6 71bd 0505 023c fc54 cd3d 813d 2b3e
000001e0: 0766 13bd 0dbc b1bd 05d3 57bd 66a9 1a3e
000001f0: acab 0dbe 974c 05be cbd7 35bd 0bbc b0bd
00000200: 6840 5d3d 3cff c5bd 113e 933d 46f0 3b3c
00000210: e413 4dbe c4f1 52bd e11d 063e b424 2a3e
00000220: ae19 bf3d 28aa dcbd 65b5 013d 63e8 063e
00000230: 7b25 373e 0958 043d 9571 ba3d edca fdbc
00000240: 2779 0ebe a7a3 e7bd ca84 533e 6ba8 053d
00000250: d99a 49bd 6547 5cbe d524 69be 53d3 1dbe
00000260: f3ad c3bc d71b 3a3d 4a8b 4e3d 838f 36be
00000270: 0c07 7f3e abbc 9dbe d87f af3d c26f f9bd
00000280: 0e73 aabd 40ed 65be 1e0b a7bd eeee 32be
00000290: 087b 20be 6267 cd3c a799 883b 8276 9abd
000002a0: 9e08 abbd 1af4 23be fe3e 9d3d ea1b 063d
000002b0: 2a92 453e 901a 043b 4dae 12be 8b32 f53d
000002c0: 709e cc3d 3fd3 52bc 02cb e33d 76f7 80bd
000002d0: ad35 a83b e1bf 09bc 9855 333e 8603 f93d
000002e0: 1291 2c3e 6e6e 253d 4a91 ebbd e609 95bd
000002f0: 1cd0 ccbd d1cd 943d 68af 013e 6243 483c
00000300: 789e 07be d323 b03c d80f 08be 7958 59be
00000310: 5277 72be 0040 203e ebf8 c5bd c71a cebd
00000320: b598 04bd 8622 b53d 312c 0bbe 857d 11be
00000330: ce7e 23be cd53 f33d fd0a afbc 2a00 c03d
00000340: d63b 733d 3f8d f63d 040e 243e c4f5 bf3c
00000350: ae45 a2bd 2818 e9bc 95ea 843d e2f0 a33c
00000360: 7c06 d1bd bd7e 8fbd 8457 023e 32d7 06be
00000370: 9039 2dbd 87d9 5d3e 9e27 f93d 394e d73d
00000380: 7c6c 69be 07fb 25bd 2a05 5dbe de42 4fbc
00000390: 78f5 73bd 0ec5 54bd 6be0 45bc c7d6 cb3d
000003a0: 2fe2 93bc ba01 c83d 6c3e 163e f69f a3bd
000003b0: a76e 873c 09c9 41be 811c c4bd 4bfd b03d
000003c0: bc52 183e 04fc 3f3d 839e dd3c 2167 e73b
000003d0: abc0 123e dfd8 d9bd 3437 2d3e 8ce2 4abe
000003e0: 69cf 99bd d17d a9bd 8c3c 86bd 3a59 923d
000003f0: b8d7 143e fff6 6cbd d9e2 24be bc9d 5cbd

fc.0.block.0.bias f4 [256]
0.017616164 0.080758415 -0.1575857 -0.15263395 0.039842475 0.01684171 0.16526894 0.2552697
-0.06992971 0.18607676 0.04124667 0.3258888 -0.1583852 -0.0386585 0.03455158 0.27899003
0.3668186 -0.001556935 0.031426772 -0.15283999 0.14850138 0.036921553 -0.113088034 0.29767078
0.051539138 0.3814182 0.026815703 0.0026540298 0.21459948 0.047241524 0.10686288 0.41686693
-0.075445004 0.37215605 0.34250236 0.18803167 0.20429133 0.13468333 0.11344164 0.041792713
-0.15609781 0.032201815 0.31215242 0.17194946 0.2550334 0.17373924 0.22724383 0.039792452
0.0121333245 0.054830503 0.13524781 -0.19193901 0.092852384 0.17918652 0.066086374 -0.012408984
0.023258913 0.13810761 -0.22143708 0.38135743 -0.115454964 0.16807978 -0.1341905 -0.16328464
0.015568688 -0.14516822 0.10900839 -0.019985229 0.13398787 0.2912956 -0.015918022 0.0070905103
-0.119178444 0.2223686 -0.19032495 0.3196196 0.094736226 0.056961413 0.44745746 -0.19219655
-0.20982943 0.16738291 -0.139667 0.1667626 0.09732538 -0.17414807 -0.049177933 -0.023884743
0.17516762 0.11583227 0.36549717 -0.116198495 0.122352555 -0.10667029 0.3611054 0.30149996
-0.15837881 -0.18376625 -0.1491298 -0.006948441 0.17704841 -0.14354634 0.04373635 -0.01827005
0.38985962 -0.22284509 -0.071256414 0.1785261 -0.086309105 0.26234424 -0.15567876 -0.04883264
0.02092957 -0.07911304 -0.008425707 0.30530903 -0.14866117 -0.08186664 0.032372538 -0.1505766
-0.14806561 0.16090998 0.29079536 -0.06349804 -0.21643725 0.24041124 0.282389 -0.18106377
-0.027014216 0.3684248 0.045401298 -0.059975017 0.14516908 -0.061294235 -0.21661602 -0.097683124
0.27282622 -0.029506147 0.2549096 -0.028792406 0.1736698 0.1794504 0.024020994 -0.06762588
-0.053575777 -0.166957 -0.02897231 -0.05333546 -0.09245398 0.40544528 0.2971496 -0.089043714
-0.0010722367 0.075862356 0.28571585 -0.08900997 0.0030579907 0.16658103 0.04863545 -0.04473829
0.1941121 0.2844516 -0.0388335 0.32547957 0.31489798 -0.040379334 -0.15910313 0.2240863
0.20090668 -0.14179602 -0.15841645 -0.024458865 -0.15076862 -0.06783424 0.28070825 0.07829777
0.19267881 0.21258041 0.49179766 0.37439874 0.14042449 0.24808492 -0.025699118 0.33292153
0.10538632 0.3931307 -0.12658547 -0.23202701 0.4055581 -0.07583475 0.16111565 0.34739256
0.18609928 -0.13401647 -0.06538709 0.015995814 -0.18246756 0.22791941 0.15134682 -0.05078617
0.2482767 0.26324946 0.03211367 0.2858767 -0.027314303 0.2359873 0.06273899 0.06700288
0.40060323 0.2586407 0.4611667 -0.10190769 -0.010099473 0.2658866 -0.01525544 0.083035685
-0.005845933 -0.057185758 0.027924098 0.328285 -0.08228368 -0.08200161 0.30739167 0.052865885
0.021215672 -0.24737486 0.00094663224 0.26467714 0.1283656 -0.054009352 -0.09083189 0.26807874
-0.039084822 -0.020900698 -0.02870162 -0.11174656 -0.0059661716 0.22978854 -0.21801417 0.29568335
-0.09112891 0.06690513 -0.029828748 0.220014 -0.09948833 -0.07443757 -0.19366544 0.103124745
0.1459912 0.40595785 0.46149594 0.046926424 -0.03728145 -0.11413993 0.3679758 0.34701213
00000000: c64f 903c ab64 a53d 255e 21be 134c 1cbe
00000010: dd31 233d a0f7 893c 433c 293e b6b2 823e
00000020: 4f37 8fbd e88a 3e3e 45f2 283d e6da a63e
00000030: bb2f 22be 6058 1ebd f585 0d3d c8d7 8e3e
00000040: a6cf bb3e 1212 ccba 5cb9 003d 1682 1cbe
00000050: bf10 183e 0e3b 173d b39a e7bd 4e68 983e
00000060: b41a 533d 3f49 c33e 9bac db3c 3bef 2d3b
00000070: f7bf 5b3e 5480 413d edda da3d 956f d53e
00000080: e982 9abd 3d8b be3e 785c af3e 608b 403e
00000090: bf31 513e 6dea 093e 1754 e83d d62e 2b3d
000000a0: 1bd8 1fbe 0de6 033d 71d2 9f3e 8513 303e
000000b0: bd93 823e b3e8 313e 9bb2 683e 69fd 223d
000000c0: daca 463c f395 603d 677e 0a3e a98b 44be
000000d0: 6429 be3d ac7c 373e 4b58 873d 0d4f 4bbc
000000e0: 7a89 be3c 156c 0d3e 67c0 62be 4841 c33e
000000f0: a773 ecbd 1b1d 2c3e 3c69 09be 1734 27be
00000100: cf13 7f3c faa6 14be ca3f df3d 10b8 a3bc
00000110: 1e34 093e b224 953e 8366 82bc 8357 e83b
00000120: d413 f4bd 98b4 633e 8be4 42be 2ea5 a33e
00000130: 1105 c23d 5f50 693d 2519 e53e 2ccf 44be
00000140: 87dd 56be 6d66 2b3e de04 0fbe d1c3 2a3e
00000150: 8752 c73d df53 32be cd6e 49bd f0a9 c3bc
00000160: 245f 333e 7839 ed3d 7222 bb3e 7af9 edbd
00000170: fa93 fa3d f475 dabd cfe2 b83e 345e 9a3e
00000180: 0e2e 22be 382d 3cbe 7bb5 18be bfaf e3bb
00000190: 2e4c 353e d0fd 12be e324 333d 12ab 95bc
000001a0: ae9b c73e 8131 64be e2ee 91bd 8ccf 363e
000001b0: d4c2 b0bd fc51 863e 416a 1fbe bc04 48bd
000001c0: 7d74 ab3c 0406 a2bd fa0b 0abc 7751 9c3e
000001d0: a23a 18be b2a9 a7bd 1199 043d c130 1abe
000001e0: 839e 17be 96c5 243e 21e3 943e 430b 82bd
000001f0: baa1 5dbe 5d2e 763e 4a95 903e c868 39be
00000200: eb4c ddbc 2da2 bc3e b6f6 393d 5da8 75bd
00000210: 34a7 143e aa0f 7bbd 97d0 5dbe 170e c8bd
00000220: e1af 8b3e e0b6 f1bc 8383 823e 0dde ebbc
00000230: 7fd6 313e d8c1 373e adc7 c43c 707f 8abd
00000240: 4672 5bbd c7f6 2abe 5657 edbc 4976 5abd
00000250: 8358 bdbd 8696 cf3e fe23 983e 8d5c b6bd
00000260: 4b8a 8cba b95d 9b3d 5949 923e dc4a b6bd
00000270: 9268 483b 3894 2a3e f735 473d 7f3f 37bd
00000280: 53c5 463e a4a3 913e e00f 1fbd 42a5 a63e
00000290: 4f3a a13e cd64 25bd eeeb 22be e176 653e
000002a0: 7bba 4d3e fa32 11be ec37 22be f55d c8bc
000002b0: 1763 1abe aeec 8abd feb8 8f3e 955a a03d
000002c0: 984d 453e aeae 593e e7cc fb3e 31b1 bf3e
000002d0: 70cb 0f3e f909 7e3e f586 d2bc b174 aa3e
000002e0: c8d4 d73d 6d48 c93e 9f9f 01be 7d98 6dbe
000002f0: 50a5 cf3e 404f 9bbd 80fb 243e 70dd b13e
00000300: cf90 3e3e 9d3b 09be abe9 85bd a709 833c
00000310: c7d8 3abe b563 693e a9fa 1a3e 2905 50bd
00000320: 3f3c 7e3e a2c8 863e a089 033d 6e5e 923e
00000330: 3fc2 dfbc a8a6 713e 4d7d 803d ce38 893d
00000340: de1b cd3e 8e6c 843e 0b1e ec3e fbb4 d0bd
00000350: 4378 25bc 4a22 883e f4f1 79bc 9d0e aa3d
00000360: 3e8f bfbb 9d3b 6abd 14c1 e43c f914 a83e
00000370: 5984 a8bd 76f0 a7bd 7162 9d3e e689 583d
00000380: 7dcc ad3c d64f 7dbe 6a27 783a c383 873e
00000390: 4672 033e e938 5dbd 1206 babd 9e41 893e
000003a0: 6817 20bd f137 abbc a91f ebbc 61db e4bd
000003b0: e07f c3bb b04d 6b3e 1b3f 5fbe cf63 973e
000003c0: cba1 babd 8f05 893d 6b5b f4bc 5a4b 613e
000003d0: 8ac0 cbbd ba72 98bd 3c50 46be 1133 d33d
000003e0: b87e 153e b5d9 cf3e 3249 ec3e ec35 403d
000003f0: 6fb4 18bd 32c2 e9bd 5367 bc3e 93ab b13e

fc.1.block.0.weight f4 [256, 256]
0.054092873 0.03455576 -0.036656115 -0.036758758 0.06849943 0.0041007856 -0.023970246 -0.12563428
-0.025627894 0.11459179 0.013863915 0.080865294 -0.032635264 0.07489985 -0.028504778 -0.029901857
-0.045546155 -0.036362246 -0.008830011 -0.0088758245 -0.057690155 0.07056512 0.04093294 -0.16637832
0.06682891 -0.041398846 -0.058027226 0.03922437 -0.06549951 0.005529302 -0.024061939 -0.109892204
-0.04895324 -0.04265622 -0.0009449923 -0.0037866915 0.08277496 -0.04860376 0.06602835 -0.018986799
-0.005601525 -0.008606113 0.024382943 0.11426095 0.08299516 0.005530537 0.037963353 -0.039236266
0.0022980103 0.001885324 -0.07358311 0.070648625 -0.12329077 0.034228534 0.054776832 0.03787986
0.09612124 -0.052971203 -0.07726628 -0.0903781 0.13270304 0.027820319 -0.12595113 0.032493312
0.0020410893 0.08611678 -0.014248766 0.087512754 0.054190304 0.04441349 -0.07533265 0.1445632
0.14912753 -0.08886297 0.06465149 0.103751004 0.031846654 -0.057028115 -0.08918223 0.19230312
0.23755786 0.021960942 -0.09014303 -0.05427757 -0.11497019 -0.0009791143 -0.000921624 6.986752e-06
0.060825124 0.017782757 -0.12934342 -0.02114554 0.008417282 0.002315303 -0.0662404 0.07367119
-0.08788131 0.0930188 0.08486525 0.0018505396 0.13705684 -0.088358745 0.02773437 0.007896428
0.02421538 -0.08815949 0.013316342 -0.023467204 -0.1439887 -0.08580325 0.13685893 -0.014936847
-0.10957334 -0.027089786 -0.03845358 -0.07361461 0.011641923 -0.07261524 -0.014260962 -0.017274644
0.028935118 0.027717242 -0.06899755 0.0017625989 0.049404953 0.005280832 -0.012322728 0.06883421
0.0505026 -0.002693588 0.054026656 0.08860211 -0.05911007 0.0335931 0.016568879 -0.09502119
-0.00064708927 -0.07658528 -0.03599456 -0.0049256887 -0.06659665 0.037322164 0.032153036 0.09532753
-0.14616238 0.0021307534 0.09566508 -0.012347815 -0.17900886 0.02269173 -0.08964444 -0.021627022
0.12891336 -0.110751204 0.13231601 0.042562544 0.10697231 0.08505572 -0.010789117 0.115977734
0.029703964 -0.01940408 -0.13100669 0.005921525 0.04421015 0.08787474 -0.01049005 -0.0358509
-0.04080873 0.090668276 -0.057548616 0.066569276 0.088517234 -0.15342784 -0.030085241 -0.0048356815
0.087779425 -0.12166474 0.000862317 0.018494612 -0.017910257 0.018896967 0.042301916 0.06329807
0.025546625 -0.118060425 -0.017829604 -0.11074656 -0.1081665 -0.07354026 0.024832066 -0.046701435
0.09712227 0.020321975 -0.06162463 -0.077071354 0.03675008 -0.107098594 0.00959419 0.09457309
-0.053590886 0.16065665 0.036120392 0.014502899 0.11038992 -0.021623421 0.008517629 -0.037915062
-0.05778521 0.042997956 0.050451946 0.056973506 0.13549249 0.04446301 0.07719611 0.017008115
-0.13141786 -0.0039438168 0.062913485 -0.04243619 -0.037735444 0.11120475 0.05136726 -0.07988407
0.1740729 -0.0058803177 -0.09518007 0.06893942 0.010849552 -0.10742859 0.083982624 -0.10376718
-0.0690633 -0.1274902 -0.080314495 -0.022560896 -0.05251325 0.020474052 -0.021833293 0.07892102
0.083777644 0.016529212 0.04598564 0.050159756 0.031147372 0.14642327 0.026247142 6.863245e-05
0.103309624 -0.1471868 -0.023548098 -0.057859212 0.0867824 0.06916701 0.05102478 -0.12544747
00000000: 7d90 5d3d 578a 0d3d b924 16bd 5a90 16bd
00000010: 6e49 8c3d e25f 863b 405d c4bc 46a6 00be
00000020: 97f1 d1bc 1aaf ea3d 7925 633c b49c a53d
00000030: 8eac 05bd 1865 993d da82 e9bc bdf4 f4bc
00000040: 9b8e 3abd 94f0 14bd c0ab 10bc e86b 11bc
00000050: 834c 6cbd 7284 903d 4ca9 273d 145f 2abe
00000060: 98dd 883d d691 29bd f5ad 6dbd bca9 203d
00000070: 9b24 86bd 262f b53b 8b1d c5bc 2a0f e1bd
00000080: 3183 48bd 4ab8 2ebd 5cb9 77ba 242a 78bb
00000090: eb85 a93d bc14 47bd df39 873d 348a 9bbc
000000a0: ff8c b7bb a700 0dbc bdbe c73c a501 ea3d
000000b0: 5ef9 a93d 8239 b53b 767f 1b3d 35b6 20bd
000000c0: 379a 163b fa1c f73a beb2 96bd 3ab0 903d
000000d0: df7f fcbd 3833 0c3d ac5d 603d e927 1b3d
000000e0: 36db c43d 55f8 58bd c93d 9ebd 2718 b9bd
000000f0: 4ee3 073e 70e7 e33c 55f9 00be b517 053d
00000100: ccc3 053b ff5d b03d a873 69bc e339 b33d
00000110: a7f6 5d3d ebea 353d 0148 9abd 6008 143e
00000120: e3b4 183e cafd b5bd 0068 843d 687b d43d
00000130: a371 023d 5096 69bd 2ca5 b6bd 1ceb 443e
00000140: 5e42 733e 6fe7 b33c e99c b8bd 2852 5ebd
00000150: 7e75 ebbd a055 80ba 2499 71ba be6f ea36
00000160: c423 793d 25ad 913c 9a72 04be 6939 adbc
00000170: a4e8 093c 57bc 173b 0ca9 87bd ece0 963d
00000180: 1efb b3bd a480 be3d d5cd ad3d ce8d f23a
00000190: a158 0c3e 6ef5 b4bd 3133 e33c 0560 013c
000001a0: 555f c63c f68c b4bd c92c 5a3c 4b3e c0bc
000001b0: c671 13be 9db9 afbd bf24 0c3e adb9 74bc
000001c0: fd67 e0bd 66eb ddbc 8081 1dbd 42c3 96bd
000001d0: c4bd 3e3c 4db7 94bd cfa6 69bc 8e83 8dbc
000001e0: 5709 ed3c 450f e33c 964e 8dbd 0107 e73a
000001f0: d95c 4a3d d40a ad3b 44e5 49bc f3f8 8c3d
00000200: d0db 4e3d e886 30bb 0e4b 5d3d 0675 b53d
00000210: 671d 72bd eb98 093d 75bb 873c 789a c2bd
00000220: 6da1 29ba bed8 9cbd 086f 13bd ac67 a1bb
00000230: d363 88bd 20df 183d e7b2 033d 143b c33d
00000240: 97ab 15be 1ca4 0b3b 0eec c33d 7d4e 4abc
00000250: 194e 37be 02e4 b93c 8197 b7bd 272b b1bc
00000260: dd01 043e 87d1 e2bd d97d 073e 1056 2e3d
00000270: 4c14 db3d b131 ae3d d6c4 30bc bc85 ed3d
00000280: ba55 f33c 4ef5 9ebc 9e26 06be 5a09 c23b
00000290: b415 353d acf7 b33d 75de 2bbc 65d8 12bd
000002a0: 0e27 27bd 4ab0 b93d 19b8 6bbd 7955 883d
000002b0: 8648 b53d 301c 1dbe 5375 f6bc a374 9ebb
000002c0: b3c5 b33d 5d2b f9bd 1d0d 623a 0382 973c
000002d0: 88b8 92bc d0cd 9a3c c644 2d3d 6ba2 813d
000002e0: 2847 d13c aac9 f1bd 640f 92bc 18cf e2bd
000002f0: 6686 ddbd 479c 96bd 9e6c cb3c 014a 3fbd
00000300: 0ae8 c63d 457a a63c 1c6a 7cbd 96d7 9dbd
00000310: 4087 163d 8256 dbbd f330 1d3c 89af c13d
00000320: 1e82 5bbd 2d83 243e faf2 133d 919d 6d3c
00000330: 1c14 e23d 9a23 b1bc 868d 0b3c d34c 1bbd
00000340: 2fb0 6cbd a01e 303d b3a6 4e3d 0d5d 693d
00000350: 8bbe 0a3e d81e 363d fe18 9e3d 9a54 8b3c
00000360: 6792 06be 223b 81bb c9d8 803d 92d1 2dbd
00000370: 7b90 1abd 51bf e33d 7a66 523d 429a a3bd
00000380: 2b40 323e aeaf c0bb c5ed c2bd 1c30 8d3d
00000390: 52c2 313c 8503 dcbd 15ff ab3d e383 d4bd
000003a0: 0f71 8dbd ca8c 02be ed7b a4bd a1d1 b8bc
000003b0: 2218 57bd 33b9 a73c bcdb b2bc 58a1 a13d
000003c0: 9d93 ab3d 4568 873c 705b 3c3d 5174 4d3d
000003d0: c628 ff3c fbef 153e 3f04 d73c c4ee 8f38
000003e0: ff93 d33d 23b8 16be f1e7 c0bc c8fd 6cbd
000003f0: f9ba b13d 6fa7 8d3d 5cff 503d 4d75 00be

fc.1.block.0.bias f4 [256]
-0.05949293 -0.079618424 0.00365592 0.05173422 -0.03489434 0.06411069 0.059554547 0.044590894
-0.030358829 0.16032623 -0.17016782 0.10110897 0.15425538 0.0045622317 -0.050079644 -0.09437009
0.037538517 0.053811397 -0.05786322 0.12369282 0.15697579 0.056522958 0.1391578 0.05882546
-0.05994064 0.1598074 0.07207224 0.11730961 0.100263685 0.07273421 0.08880983 -0.075700626
-0.120434016 0.20825785 -0.1458134 -0.12867554 0.14638719 0.027912771 0.07414055 0.06584901
0.014724234 -0.06410131 -0.02508876 0.1388154 0.06444066 0.11042882 0.08224519 0.12664479
-0.10271619 0.01164326 0.09946201 0.26073584 0.04390632 0.0045646103 -0.0032382456 -0.08107653
0.022046814 0.21137522 -0.012136148 -0.0541737 0.10512466 0.12545007 0.0014750245 0.1813725
0.18976395 0.19112188 0.012729074 0.1804597 -0.03737618 -0.0025052854 0.029562838 -0.03286228
0.056845468 0.018887408 -0.019660389 0.123327285 0.14528194 0.025004111 0.062256362 0.08766829
0.22987819 0.017323498 0.009199681 0.07854319 -0.066900164 -0.07307664 -0.0074389325 -0.059329297
-0.0023611216 0.100441426 0.13199843 0.059567288 -0.093077734 -0.010128581 0.097011775 -0.06768764
0.15822946 -0.015485825 -0.10137447 0.0847766 0.06360523 0.09011678 0.17276913 -0.08181765
0.086670324 -0.07778569 -0.12416547 0.042536553 0.11048673 0.006931472 0.11994705 0.102368295
0.055654004 0.006143773 0.016155621 -0.053292822 0.04977808 0.15874694 0.0930857 0.123129755
0.06776567 0.045108665 -0.018916551 0.043890238 0.028460154 -0.10709559 0.089449294 0.04238999
-0.066026494 0.0029624612 0.08257646 -0.021435097 0.03831205 -0.02307012 0.08828692 0.03277667
-0.07567129 0.025916217 0.03275238 0.13810468 0.12668146 -0.07343754 0.014657714 0.18487458
0.14643261 0.0019426548 0.08338765 0.01761488 0.06728994 0.00023156244 0.00788185 0.047473013
0.025296815 -0.0253249 -0.018830562 -0.01807448 0.03557213 0.2017121 -0.06091922 -0.12616247
0.08107281 -0.05866222 -0.15056565 0.02017666 0.034332074 0.12729341 0.07424942 0.07288693
0.0058174897 0.103889436 -0.0074789417 0.006822855 0.073256016 0.0569132 -0.017836114 0.16416925
-0.025481425 0.09240636 0.14693931 0.021311928 0.09334717 0.08731372 0.10596651 0.17187533
0.07509756 0.1080158 -0.013717447 0.025202245 0.030544091 -0.034507323 0.095775776 0.08830372
0.25484923 0.21076104 0.1470821 0.112384155 0.12675478 -0.04862502 0.13866535 -0.0549263
-0.06646892 0.09647406 -0.04104865 0.09528716 0.21044081 0.088118166 0.11605034 0.14031085
-0.0028338637 0.098287016 -0.043729804 0.13418134 0.14706421 -0.120594434 0.015288132 0.120674066
0.08535727 0.055747047 0.047593463 -0.0069887917 0.034554638 0.05256711 -0.0239376 0.039020743
0.06712638 0.12249809 0.039557472 0.06183457 0.027644379 -0.08429657 0.16581543 0.18912625
0.005184999 0.019262243 -0.20667814 0.10608737 -0.07044093 0.036565788 0.09349872 -0.07576999
0.05323729 0.089662306 -0.027735913 0.13169374 0.011672505 -0.10912747 0.16152513 -0.017424423
0.17577471 0.089539126 0.054863364 0.10536871 0.039948676 -0.15760612 0.11385611 0.06511006
00000000: dcae 73bd fc0e a3bd 2998 6f3b 43e7 533d
00000010: 5eed 0ebd 774c 833d 78ef 733d f1a4 363d
00000020: 14b3 f8bc 8f2c 243e 7940 2ebe 3812 cf3d
00000030: 1ff5 1d3e c67e 953b 5020 4dbd 1b45 c1bd
00000040: fdc1 193d 5769 5c3d fc01 6dbd a952 fd3d
00000050: 43be 203e 9e84 673d 627f 0e3e f7f2 703d
00000060: 5184 75bd 8da4 233e 9c9a 933d 0540 f03d
00000070: 0c57 cd3d acf5 943d eee1 b53d ee08 9bbd
00000080: 1ca6 f6bd 8c41 553e 1c50 15be 85c3 03be
00000090: 86e6 153e 53a9 e43c 00d7 973d d9db 863d
000000a0: ea3d 713c 8c47 83bd f186 cdbc a025 0e3e
000000b0: 77f9 833d 8128 e23d 2b70 a83d 2caf 013e
000000c0: de5c d2bd 5fc3 3e3c bdb2 cb3d 2b7f 853e
000000d0: 1dd7 333d ba92 953b bf38 54bb 740b a6bd
000000e0: 859b b43c bf72 583e b2d6 46bc 3ee5 5dbd
000000f0: 994b d73d fc75 003e 9c55 c13a b6b9 393e
00000100: 7b51 423e 74b5 433e 9b8d 503c 6dca 383e
00000110: c417 19bd b72f 24bb c42d f23c 999a 06bd
00000120: cbd6 683d c4b9 9a3c d30e a1bc 0493 fc3d
00000130: cac4 143e 6cd5 cc3c 8700 7f3d 6f8b b33d
00000140: 3065 6b3e 02ea 8d3c 42ba 163c 41db a03d
00000150: f402 89bd 35a9 95bd 4ac2 f3bb 4703 73bd
00000160: 0cbd 1abb 3cb4 cd3d 992a 073e d4fc 733d
00000170: 8a9f bebd 59f2 25bc 1cae c63d d19f 8abd
00000180: e706 223e 42b8 7dbc 6b9d cfbd 5b9f ad3d
00000190: 7543 823d 258f b83d 64ea 303e 0390 a7bd
000001a0: 3680 b13d 1b4e 9fbd 774a febd cf3a 2e3d
000001b0: de46 e23d 6721 e33b cda6 f53d 78a6 d13d
000001c0: 74f5 633d b451 c93b cb58 843c 9349 5abd
000001d0: 1ae4 4b3d 8f8e 223e b7a3 be3d 742b fc3d
000001e0: bac8 8a3d ddc3 383d e2f6 9abc 40c6 333d
000001f0: 4525 e93c ef54 dbbd 3131 b73d 20a1 2d3d
00000200: e638 87bd da25 423b d91d a93d a898 afbc
00000210: 19ed 1c3d 8cfd bcbc c6cf b43d d440 063d
00000220: 8df9 9abd 3f4e d43c 5c27 063d 506b 0d3e
00000230: c9b8 013e 6c66 96bd e926 703c c34f 3d3e
00000240: 6ef2 153e aea0 fe3a 25c7 aa3d 154d 903c
00000250: 4fcf 893d 92cf 7239 e022 013c 1073 423d
00000260: 443b cf3c 2a76 cfbc 8d42 9abc ef10 94bc
00000270: 15b4 113d 9e8d 4e3e 6f86 79bd bc30 01be
00000280: 8009 a63d cc47 70bd e22d 1abe 8649 a53c
00000290: ca9f 0c3d 3459 023e 1410 983d be45 953d
000002a0: a4a0 be3b fcc3 d43d e911 f5bb 4292 df3b
000002b0: 4007 963d d11d 693d 0b1d 92bc fc1b 283e
000002c0: 6cbe d0bc 8c3f bd3d 4277 163e 5a96 ae3c
000002d0: cd2c bf3d 89d1 b23d f804 d93d 1600 303e
000002e0: c0cc 993d 6337 dd3d 25bf 60bc f074 ce3c
000002f0: 9a37 fa3c 8d57 0dbd 1726 c43d 95d8 b43d
00000300: 997b 823e bed1 573e b19c 163e aa29 e63d
00000310: 01cc 013e 072b 47bd 4afe 0d3e 66fa 60bd
00000320: db20 88bd 3194 c53d a122 28bd ea25 c33d
00000330: cc7d 573e 4c77 b43d cdab ed3d a6ad 0f3e
00000340: 58b8 39bb b44a c93d 061e 33bd d566 093e
00000350: 0098 163e 37fa f6bd 137b 7a3c f723 f73d
00000360: cbcf ae3d 0457 643d 5df1 423d 3c02 e5bb
00000370: 2a89 0d3d 9c50 573d c918 c4bc 37d4 1f3d
00000380: 8e79 893d 47e0 fa3d 0407 223d 3f46 7d3d
00000390: 7776 e23c aea3 acbd 85cb 293e 50aa 413e
000003a0: ede6 a93b dacb 9d3c 6fa3 53be 5644 d93d
000003b0: 5643 90bd 02c6 153d 427c bf3d 4c2d 9bbd
000003c0: 580f 5a3d dfa0 b73d 6d36 e3bc b9da 063e
000003d0: 093e 3f3c 397e dfbd d866 253e aabd 8ebc
000003e0: 49fe 333e 4a60 b73d 68b8 603d 8dcb d73d
000003f0: 39a1 233d 8063 21be 642d e93d 6c58 853d

fc.2.weight f4 [41, 256]
0.09740064 0.023597294 -0.02647469 0.0699953 0.0715117 0.07437711 -0.04995612 0.07782454
0.1560626 -0.1613549 0.19520205 -0.03015643 0.047550075 -0.21609396 -0.048331995 -0.09450378
0.04470978 0.082293645 -0.006459179 0.042999238 -0.13976775 -0.08643213 -0.1655621 0.047129646
0.093506716 0.045461375 -0.026846902 0.04086588 0.01600101 -0.038661715 0.048609782 0.026277376
-0.098533034 -0.22718011 -0.10317228 -0.043312624 -0.20690873 -0.058759365 0.00085562456 -0.03812194
0.09512967 -0.13934252 -0.080349565 -0.0041381605 -0.023390062 0.03092044 0.047262162 -0.23867443
-0.23203917 -0.021221176 -0.17979135 -0.27598986 0.122021936 -0.1790603 0.056462526 -0.18427989
0.05824187 0.10339727 0.05256379 -0.117907956 0.09148469 0.047568604 -0.12674764 -0.23400146
-0.026634142 0.06835714 0.06306689 0.09699592 0.08612285 0.08728591 -0.00014080609 -0.15855895
0.076741084 0.083677396 0.06133619 0.09881974 -0.22504014 -0.16260116 -0.19147965 0.07711822
0.06795573 -0.08681805 0.022115521 -0.103590325 0.156412 -0.11611312 -0.027264806 0.08459035
-0.0969997 0.13531423 0.03463512 0.050110646 -0.14741938 -0.07326941 0.03824828 0.036780313
0.022665884 0.062280443 0.20471112 -0.17900382 0.05615434 -0.11494359 0.094005965 -0.14553757
-0.059052303 0.11434363 -0.082513064 0.108701095 -0.032522097 -0.1765851 0.041598212 -0.0030043067
-0.24189028 -0.101898365 -0.23866363 -0.027596146 0.11613951 0.038800407 0.046733156 0.06057024
0.029826302 0.09144763 -0.012942246 0.036717236 -0.053366654 -0.099543534 0.0032227174 0.04094176
0.07232653 0.1267577 0.06863026 0.06369267 -0.05754641 -0.095371276 0.034524504 -0.23124148
0.00944144 0.02259661 0.09585021 0.040992502 0.067892015 0.03838953 -0.0021144613 -0.16600312
0.070515126 0.050970092 0.056934156 -0.005737904 -0.06472615 0.059410304 0.011840928 -0.19207759
0.039209075 0.045089673 -0.17398064 0.028617853 0.010235257 0.072314255 -0.14623956 -0.14916116
0.107339196 -0.13490996 -0.0071762847 -0.10927171 0.020469204 0.061446197 -0.028410362 -0.18243475
0.07918343 -1.21493e-05 -0.04175965 -0.12746829 0.07442091 0.10124469 -0.14352135 -0.060971234
-0.06374253 0.0590707 0.015581597 -0.17318568 0.10054873 0.11045482 0.091387294 0.07720148
0.06514034 0.061122637 -0.04632575 -0.009013383 0.06765268 -0.10393364 -0.034241933 0.047817707
0.07934088 0.09519126 0.047860213 0.080499046 0.08399634 -0.13909657 0.083877124 -0.0006121162
0.07151671 -0.09046042 -0.07670526 -0.06711723 0.05993962 0.0047243615 -0.082407534 -0.039852712
0.063576944 -0.27352148 -0.074973956 0.013220752 0.031538364 0.02020801 0.050714977 -0.059363924
-0.036499754 0.10873097 -0.00700892 -0.027051317 0.16999282 0.040522844 -0.045773216 0.09103608
0.06710634 0.048700992 -0.13279474 0.041056726 0.030264286 0.062192816 0.037390392 -0.13522448
-0.12752134 0.059690814 -0.068945855 -0.086011305 -0.13580625 -0.1077062 0.08170161 -0.120893404
0.00657438 -0.05841703 -0.02644892 0.06354857 -0.13302685 -0.033956878 -0.016435916 0.09210848
-0.06924487 0.08285098 0.097988 0.06540291 0.13498205 0.1813817 0.041995157 0.017329752
00000000: fd79 c73d 1d4f c13c 73e1 d8bc b259 8f3d
00000010: ba74 923d 0753 983d ca9e 4cbd 7962 9f3d
00000020: e0ce 1f3e 383a 25be 0ce3 473e 9e0a f7bc
00000030: dec3 423d bc47 5dbe c5f7 45bd 338b c1bd
00000040: 9a21 373d 9289 a83d 85a7 d3bb f81f 303d
00000050: 471f 0fbe 5403 b1bd 1c89 29be 040b 413d
00000060: 7380 bf3d b535 3a3d 09ee dbbc fb62 273d
00000070: 8d14 833c bf5b 1ebd 0d1b 473d a743 d73c
00000080: b0cb c9bd e7a1 68be fd4b d3bd 9468 31bd
00000090: e2df 53be a9ad 70bd fe4b 603a c025 1cbd
000000a0: 58d3 c23d ceaf 0ebe 508e a4bd 6899 87bb
000000b0: 849c bfbc dd4c fd3c f895 413d 1267 74be
000000c0: ad9b 6dbe 08d8 adbc 391b 38be 8b4e 8dbe
000000d0: a3e6 f93d 955b 37be 4045 673d deb3 3cbe
000000e0: 078f 6e3d f3c1 d33d 214d 573d ba79 f1bd
000000f0: 535c bb3d 4cd7 423d 22ca 01be 149e 6fbe
00000100: d82f dabc d4fe 8b3d 3729 813d cca5 c63d
00000110: 2d61 b03d f5c2 b23d 59a5 13b9 475d 22be
00000120: 6e2a 9d3d 0e5f ab3d a83b 7b3d 0162 ca3d
00000130: ec70 66be eb80 26be 3e13 44be 28f0 9d3d
00000140: 602c 8b3d a9cd b1bd 9c2b b53c 2a27 d4bd
00000150: 782a 203e b7cc edbd 715a dfbc b53d ad3d
00000160: c7a7 c6bd d08f 0a3e 8edd 0d3d d240 4d3d
00000170: 1bf5 16be 460e 96bd 3aaa 1c3d f4a6 163d
00000180: cead b93c c719 7f3d cb9f 513e c74c 37be
00000190: 1802 663d 8b67 ebbd 3386 c03d cd07 15be
000001a0: d4e0 71bd fe2c ea3d 9cfc a8bd ae9e de3d
000001b0: e435 05bd b9d2 34be e362 2a3d e7e3 44bb
000001c0: 16b2 77be 17b0 d0bd 3d64 74be 5011 e2bc
000001d0: 8dda ed3d 2ded 1e3d 446b 3f3d 8018 783d
000001e0: 4a56 f43c e548 bb3d b70b 54bc d064 163d
000001f0: fe96 5abd 7bdd cbbd 3a34 533b 8cb2 273d
00000200: ef1f 943d c5cc 013e 068e 8c3d 4d71 823d
00000210: c9b5 6bbd 0452 c3bd 9169 0d3d 91ca 6cbe
00000220: 45b0 1a3c 871c b93c 1d4d c43d c1e7 273d
00000230: f80a 8b3d 573e 1d3d c692 0abb b9fc 29be
00000240: 3c6a 903d 04c6 503d ca33 693d 0705 bcbb
00000250: 258f 84bd 3858 733d 7400 423c fdaf 44be
00000260: b299 203d f3af 383d fb27 32be fd6f ea3c
00000270: c8b1 273c 7f19 943d d3bf 15be b4bd 18be
00000280: a7d4 db3d d625 0abe 0a27 ebbb d9c9 dfbd
00000290: 08af a73c 02af 7b3d d9bc e8bc 2dd0 3abe
000002a0: ec2a a23d d9d4 4bb7 2b0c 2bbd 0c87 02be
000002b0: fd69 983d 6059 cf3d 43f7 12be f9bc 79bd
000002c0: 728b 82bd 1ef4 713d f449 7f3c 9657 31be
000002d0: 7eec cd3d 2336 e23d 4329 bb3d cf1b 9e3d
000002e0: 4c68 853d bb5b 7a3d 12c0 3dbd deac 13bc
000002f0: 7d8d 8a3d 29db d4bd 4541 0cbd 80dc 433d
00000300: 797d a23d a3f3 c23d 1209 443d afdc a43d
00000310: 4606 ac3d 556f 0ebe c5c7 ab3d 6c76 20ba
00000320: 5a77 923d 5043 b9bd a617 9dbd c274 89bd
00000330: 3f83 753d d1ce 9a3b 48c5 a8bd 993c 23bd
00000340: a134 823d 020b 8cbe f28b 99bd da9b 583c
00000350: 5f2e 013d 458b a53c 82ba 4f3d 9627 73bd
00000360: c480 15bd 58ae de3d 15ab e5bb b99a ddbc
00000370: 9912 2e3e 48fb 253d b27c 3bbd 2071 ba3d
00000380: 0c6f 893d b17a 473d 58fb 07be 192b 283d
00000390: cfec f73c e5bd 7e3d ab26 193d 4978 0abe
000003a0: f494 02be 5b7e 743d 7c33 8dbd b226 b0bd
000003b0: cb10 0bbe 1195 dcbd 2c53 a73d f696 f7bd
000003c0: e66d d73b b246 6fbd 68ab d8bc c125 823d
000003d0: 3138 08be 5e16 0bbd 9da4 86bc 5fa3 bc3d
000003e0: 41d0 8dbd c6ad a93d efad c83d f6f1 853d
000003f0: bc38 0a3e 20bc 393e 1d03 2c3d 20f7 8d3c

fc.2.bias f4 [41]
-0.0024726894 -0.14935489 -0.091917515 -0.024071427 0.028771022 0.088159695 0.10631904 -0.113792576
-0.13443208 -0.033144962 -0.04821899 -0.06603252 -0.0002681047 -0.04088763 -0.042551555 -0.040944804
0.0014134061 -0.05799206 -0.08318797 0.015864423 -0.03623656 -0.09119188 -0.023790594 0.1679826
0.121156186 -0.0054923277 -0.030789645 0.070344925 -0.05901263 0.09552399 0.0378901 0.11619719
0.05979541 -0.016542284 -0.0257495 -0.03033434 0.03866027 -0.028223215 -0.0022199862 -0.06538149
-0.0035826834
00000000: d80c 22bb 7df0 18be 403f bcbd 7131 c5bc
00000010: 35b1 eb3c 128d b43d ccbd d93d 150c e9bd
00000020: 90a8 09be 03c3 07bd 4781 45bd 0f3c 87bd
00000030: 6790 8cb9 ca79 27bd 8a4a 2ebd bdb5 27bd
00000040: 0a42 b93a 1589 6dbd 745e aabd 1bf6 813c
00000050: ca6c 14bd cfc2 babd 7ee4 c2bc a103 2c3e
00000060: bc20 f83d fcf8 b3bb 913a fcbc 0011 903d
00000070: 3ab7 71bd 15a2 c33d a632 1b3d cbf8 ed3d
00000080: 08ec 743d af83 87bc 9ef0 d2bc b97f f8bc
00000090: 3b5a 1e3d 5f34 e7bc 307d 11bb bbe6 85bd
000000a0: 74cb 6abb
